models/threebitrnn.pth (torch, 44144 bytes, 3 tensors)

input_weights f4 [100, 3]
0	0x3e5001a6	0.20313129
1	0xbdc2bfc8	-0.095092356
2	0xbe04931f	-0.12946747
3	0x3d7de8c4	0.06198956
4	0xbe8ad017	-0.27111885
5	0xbd25e615	-0.040502626
6	0x3a8bec33	0.0010675251
7	0xbdafaccf	-0.085778825
8	0xbf431c51	-0.7621508
9	0xbacc639d	-0.0015593652
10	0x3f18f80e	0.597535
11	0x3e6cf8e9	0.23141827
12	0xbe3de1ac	-0.18543118
13	0xbcd2cb82	-0.025731806
14	0xbed44851	-0.41461423
15	0xbe0dc1ee	-0.1384351
16	0x3c2b7c73	0.010466683
17	0x3ed86130	0.42261648
18	0x3e30980f	0.17245506
19	0xbeb6f671	-0.35734895
20	0x3e1e1e75	0.15441306
21	0xbd22874f	-0.03967982
22	0xbdd93b0b	-0.10606965
23	0xbef7732f	-0.48330066
24	0xbf2b306f	-0.6687078
25	0x3d907ce3	0.0705507
26	0x3e0dd1cc	0.13849562
27	0xbd5739d5	-0.052545387
28	0x3f1c057c	0.6094587
29	0xbd0ae82f	-0.033912834
30	0xbe020c55	-0.12700017
31	0xbe83a441	-0.25711253
32	0x3ef01d9e	0.46897596
33	0x3d485214	0.0489064
34	0xbf05af2f	-0.52220434
35	0x3cea6574	0.02861283
36	0xbe48546e	-0.19563457
37	0xbed295b7	-0.41129848
38	0xbe90d50b	-0.2828754
39	0xbe0334ab	-0.1281306
40	0xbea0a0d2	-0.31372696
41	0x3e9d84c3	0.30765352
42	0x3e1df77f	0.15426444
43	0x3eb43613	0.35197505
44	0xbedd8f9f	-0.43273637
45	0xbef0f25f	-0.47059914
46	0xbcf68a51	-0.030095251
47	0x3e090cea	0.13383833
48	0xbe2cd1b8	-0.16876876
49	0xbece1c7f	-0.40256116
50	0x3ddf9dfa	0.109188035
51	0x3efda022	0.49536234
52	0xbe2a017d	-0.1660213
53	0xbd07989e	-0.03310453
54	0xbdc85689	-0.0978213
55	0xbfb4e86c	-1.413343
56	0xbd87aabb	-0.06624361
57	0x3e95cd19	0.2925804
58	0xbebdf153	-0.37098178
59	0x3d2b8200	0.041872025
60	0xbe887a12	-0.26655632
61	0x3cff2739	0.031146633
62	0xbea16cee	-0.3152842
63	0xbeff9ef7	-0.49925968
64	0xbe424aca	-0.18973842
65	0x3e007f08	0.12548459
66	0xbf5e64a0	-0.8687229
67	0xbb3d8299	-0.0028916954
68	0xbcadbf9b	-0.021209529
69	0x40000aec	2.0006666
70	0x3c8d1e32	0.017226312
71	0x3e45857d	0.19289203
72	0xbe8352ed	-0.25649205
73	0xbe1f6fec	-0.15570039
74	0x3ee12271	0.4397159
75	0xbe5f8a96	-0.2183021
76	0xbed30e2c	-0.4122175
77	0xbe303a09	-0.17209639
78	0x3e2bae17	0.16765629
79	0x3ea14991	0.3150144
80	0x3dfef8dd	0.12449811
81	0xbed3e3fc	-0.41384876
82	0x3e98ea5b	0.298663
83	0xbe35cf24	-0.17754799
84	0xbe20b514	-0.15694076
85	0xbff60672	-1.9220717
86	0xbdecc879	-0.115616746
87	0xbd143f65	-0.03619327
88	0x3d07a946	0.033120416
89	0xbe3dfabf	-0.18552683
90	0x3eb058e1	0.3444281
91	0x3d9c63b3	0.076362036
92	0xbd28198a	-0.04103998
93	0xbffdfeb5	-1.9843355
94	0x3d9aa649	0.075512476
95	0xbe24b5d7	-0.16084991
96	0x3e1ab10d	0.15106602
97	0xbe455300	-0.19269943
98	0xbc62464d	-0.013810706
99	0xbe195984	-0.14975554
100	0xbe615d69	-0.2200829
101	0xbdc16029	-0.09442169
102	0xbe0a7806	-0.13522348
103	0xbd19f6fd	-0.037589062
104	0xbf274060	-0.65332603
105	0xbe3f8983	-0.187048
106	0x3d39ca1d	0.045358766
107	0x3eb1425b	0.34620938
108	0xbd97857c	-0.07398507
109	0xbeffcdee	-0.499618
110	0x3e91db8d	0.28487816
111	0xbe975cd4	-0.2956301
112	0x3daa53f7	0.08316796
113	0xbe9f1aad	-0.3107504
114	0xbce0644e	-0.027391579
115	0xbfec19d5	-1.8445383
116	0xbb2f0ae9	-0.0026709384
117	0x3de12c78	0.1099481
118	0xbe970582	-0.2949639
119	0x3d881fb8	0.06646675
120	0xbdf5281b	-0.1197054
121	0xbe8ab189	-0.27088574
122	0xbe816c17	-0.25277779
123	0x3ec5096f	0.3848376
124	0x3dce7e64	0.10082701
125	0x3f186617	0.59530777
126	0x3f01c05f	0.5068416
127	0xbd9a0af2	-0.07521619
128	0x3cc33b05	0.023831854
129	0xbdd48b76	-0.103781626
130	0xbd95e8aa	-0.07319768
131	0xbeca305f	-0.3949003
132	0xbeebbefe	-0.46044153
133	0x3caac92e	0.020847883
134	0x3e040874	0.1289385
135	0xbd8f604d	-0.0700079
136	0x3e3e85cc	0.18605727
137	0xbe82e195	-0.2556273
138	0x3fbaafd1	1.4584905
139	0x3dde9fae	0.108703
140	0xbd8621ff	-0.06549453
141	0x3ee451ea	0.44593745
142	0x3d1b966d	0.037985254
143	0x3ec48558	0.38382983
144	0xbd7e3caa	-0.062069573
145	0xbf4a1156	-0.789327
146	0xbe34e233	-0.17664413
147	0xbebe422d	-0.37159863
148	0x3e8e9daa	0.27854663
149	0xbd466d8b	-0.048444312
150	0xb87128e7	-5.749697e-05
151	0x3dfe8302	0.124273315
152	0x4000b9f2	2.0113492
153	0x3ea934be	0.33048052
154	0x3c5a2c2b	0.0133161945
155	0xbe09b964	-0.13449627
156	0x3bec0b88	0.007203523
157	0x3e599725	0.21249063
158	0xbe60463a	-0.2190179
159	0x3e55a3ce	0.20863268
160	0xbe072ec4	-0.13201433
161	0x3e5d1fbb	0.21594135
162	0xbd989605	-0.07450489
163	0x3f3de62d	0.74179345
164	0x3ea39d27	0.31955835
165	0xbe937414	-0.28799498
166	0x3e0516af	0.12996934
167	0x3edc8368	0.43069005
168	0xbe8a1c94	-0.26974928
169	0x3d67c2f4	0.056582406
170	0x3e21d7ba	0.1580495
171	0x3d0540af	0.03253239
172	0xbf585da9	-0.84517914
173	0x3b883c8f	0.00415761
174	0x3f0c333f	0.54765695
175	0x3d55595c	0.052087173
176	0x3dc20513	0.09473624
177	0x3e11f1ba	0.14252368
178	0x3f00fd3a	0.50386393
179	0xbc5b1bec	-0.013373356
180	0x3dfb625d	0.12274621
181	0xbd167532	-0.03673286
182	0xbdd4df39	-0.10394139
183	0x3e9715e6	0.29508895
184	0xbd83d071	-0.064362414
185	0xbeaad746	-0.33367366
186	0x3e046e5a	0.12932721
187	0xbf2086d0	-0.6270571
188	0x3b0e01eb	0.0021668624
189	0xbeabe645	-0.3357412
190	0x3dca772e	0.09886013
191	0x3ddf670e	0.10908328
192	0xbd767831	-0.060173217
193	0x3e50b597	0.20381771
194	0x3fd956f4	1.6979661
195	0xbe17c81b	-0.14822428
196	0xbd68f7ed	-0.056877065
197	0x3f4e0f3b	0.8049199
198	0xbe1496a9	-0.14510597
199	0xbe8f40d2	-0.2797914
200	0x3ee54208	0.4477694
201	0x3f3909d1	0.72280604
202	0xbe36d681	-0.17855264
203	0xbe30a264	-0.17249447
204	0xbeca3d9b	-0.39500126
205	0x3bf12094	0.00735862
206	0xbe179e70	-0.14806533
207	0xbecca44e	-0.39969105
208	0xbe54726c	-0.20746773
209	0xbe063dcb	-0.1310951
210	0x3fc10b0f	1.50815
211	0xbd45b760	-0.048270583
212	0xbdab5eaa	-0.08367665
213	0xbf240b16	-0.64079416
214	0xbdf7303c	-0.12069747
215	0x3c392d90	0.011302367
216	0xbf6cb947	-0.9247021
217	0xbe00f4f2	-0.12593439
218	0xbceae7ca	-0.028674979
219	0xbd6a1684	-0.05715038
220	0x3cd56f61	0.026054086
221	0x3ce72225	0.028214524
222	0xbd7e5c80	-0.062099934
223	0xbeb7efb1	-0.35925058
224	0x3e0b63f8	0.13612354
225	0xbd47a9cb	-0.04874591
226	0xbe9e0ce4	-0.3086921
227	0xbda99cf0	-0.082818866
228	0xbdea206d	-0.11431966
229	0xbfbe1cdb	-1.4852556
230	0x3e4b5746	0.19857511
231	0xbc4054fb	-0.011739011
232	0x3e2644fa	0.1623725
233	0xbfbcca54	-1.4749246
234	0xbe63bd41	-0.22240163
235	0xbd45a5fb	-0.048253994
236	0x3eb6b93d	0.356882
237	0x3cfec041	0.031097533
238	0x3e1a0e3b	0.15044491
239	0xbf0c44cf	-0.54792494
240	0xbe3574bf	-0.17720316
241	0x3e015d78	0.12633312
242	0x3e3da0e7	0.1851841
243	0xbc1f3b4b	-0.009718726
244	0x3f0c7492	0.5486537
245	0x3e303491	0.17207552
246	0x3d621094	0.05519159
247	0xbecf165e	-0.40446752
248	0x3d6966b8	0.056982726
249	0xbeaede97	-0.34154198
250	0x3e16659e	0.14687201
251	0xbe748ccc	-0.23881835
252	0xbe788c48	-0.24272263
253	0x3e90125c	0.28139007
254	0x3e650551	0.2236531
255	0x3fcecb48	1.6155787

recurrent_weights f4 [100, 100]
0	0xbe498846	-0.1968089
1	0xbe820aaf	-0.25398776
2	0x3db5aa0f	0.08870327
3	0x3dce70ca	0.100801066
4	0x3da1ad99	0.07894439
5	0xbe111342	-0.14167503
6	0x3d5b8bcd	0.05360012
7	0x3ccfb793	0.02535609
8	0x3dd027af	0.10163819
9	0x3e100b12	0.14066723
10	0xbe11fc1f	-0.14256333
11	0x3d032a23	0.032022607
12	0x3db6efcd	0.08932457
13	0xbdbd2a9e	-0.09236644
14	0x3e2a39bc	0.16623586
15	0x3cdad82b	0.026714405
16	0x3cda54b4	0.026651718
17	0xbe1f155b	-0.1553549
18	0xbd81cc78	-0.063378274
19	0xbd0fcf07	-0.035109546
20	0x3da29017	0.07937639
21	0xbded12d1	-0.115758546
22	0xbdc1f60a	-0.09470756
23	0x3db8cb8a	0.09023197
24	0xbdeadf99	-0.11468429
25	0xbccd57e3	-0.025066322
26	0xbccc1b48	-0.024915352
27	0xbc70933a	-0.014683539
28	0x3e17b628	0.14815581
29	0xbd034390	-0.032046854
30	0xbc1156d0	-0.008870795
31	0x3e0829d4	0.13297206
32	0x3c742c61	0.014903159
33	0x3ccddd41	0.025129916
34	0xbdbb156e	-0.09134947
35	0x3d3854b9	0.045002673
36	0x3ceef7fb	0.02917098
37	0x3cd9145c	0.026498966
38	0x3d8dbf87	0.069212966
39	0x3d6afdd9	0.057370994
40	0xbd6f0b85	-0.058360595
41	0x3c282521	0.0102627585
42	0xbde2c13a	-0.11072011
43	0x3cde77da	0.027156759
44	0x3c5588be	0.01303309
45	0x3d1460b4	0.036225036
46	0xbe1578d7	-0.14596878
47	0x3dcba0df	0.09942793
48	0xbdbb42cf	-0.09143602
49	0x3dc4dcfa	0.096124604
50	0xbd37a71f	-0.044837113
51	0xbddc7fa2	-0.107665315
52	0x3dd07ca6	0.10180025
53	0xbe2e694c	-0.17032355
54	0xba38b535	-0.0007046045
55	0xbdd2f8a9	-0.103013344
56	0xbce03191	-0.027367385
57	0x3e2d5bca	0.16929546
58	0x3bde488e	0.0067835515
59	0xbd6581d4	-0.056032017
60	0x3c96a1b8	0.01838766
61	0xbdcb45e0	-0.09925437
62	0x3dd91caa	0.1060117
63	0xbd620990	-0.0551849
64	0x3e4adc98	0.19810712
65	0x3d5c60c3	0.053803217
66	0x3bb6bb0e	0.005576498
67	0xbe0e38d7	-0.1388887
68	0xbdaeb1ec	-0.0853003
69	0xbe0222bf	-0.12708567
70	0x3d5993ac	0.053119346
71	0x3dde288e	0.10847579
72	0xbe33d4d2	-0.17561653
73	0x3d47a2ce	0.048739247
74	0x3db62243	0.08893254
75	0xbd3bb416	-0.04582604
76	0xbe13ecbb	-0.14445774
77	0x3e352827	0.17691098
78	0x3dbc2ad6	0.09187858
79	0x3e46ba0e	0.19406912
80	0xbdc176d7	-0.09446495
81	0x3dda4be8	0.10659009
82	0x3da39bed	0.07988725
83	0xbd8e4c2f	-0.069481246
84	0xbde3d1be	-0.111239895
85	0x3be25e28	0.006908197
86	0x3d8cc811	0.06874097
87	0xbde74e0f	-0.11294185
88	0x3d379a79	0.04482505
89	0xbdd65013	-0.10464492
90	0x3c040bfa	0.008059496
91	0xbd5aca70	-0.053415716
92	0xbe01750d	-0.12642308
93	0xbd80c5f0	-0.062877536
94	0xbdbd37e0	-0.09239173
95	0x3d997300	0.07492638
96	0x3e11b14b	0.14227788
97	0xbd9f3536	-0.07773821
98	0xbcb6cdbc	-0.022314899
99	0xbc57ecb8	-0.013178997
100	0x3d96a1c0	0.0735507
101	0xbdd78ef3	-0.10525312
102	0x3d74fb84	0.059810176
103	0xbca7773b	-0.020442596
104	0xbd8957d9	-0.06706209
105	0x3e151ac7	0.14560996
106	0xbd6b4925	-0.057442803
107	0xbdb0a136	-0.086244985
108	0x3bf226f1	0.007389896
109	0xbd2198e8	-0.039452463
110	0xbd5f03dc	-0.05444704
111	0xbc164857	-0.009172521
112	0xbdb60bcd	-0.088889696
113	0xba750070	-0.00093460735
114	0x3d33f28b	0.04393248
115	0xbc8fa98c	-0.017536901
116	0xbc1e9e66	-0.00968132
117	0xbce9997e	-0.028515574
118	0x3b2d2dd1	0.0026425014
119	0xbdbd608e	-0.09246932
120	0x3dea61b4	0.11444417
121	0xbde8165e	-0.11332391
122	0xbda516bf	-0.08060979
123	0xbd92da80	-0.07170582
124	0xbcd154e3	-0.025553172
125	0xbe5b6cee	-0.21428272
126	0x3b868c21	0.00410606
127	0x3c4c4c8f	0.012469425
128	0xbd5bdadb	-0.053675514
129	0xba928a7a	-0.0011180185
130	0xbe419ae9	-0.1890675
131	0xbbbb5784	-0.00571722
132	0x3d8a4a89	0.06752498
133	0xbde93a5d	-0.11388085
134	0xbc88a4dc	-0.016680174
135	0x3d89065c	0.06690666
136	0x3c305f22	0.010764869
137	0xbc1baeb3	-0.009502101
138	0x3dd1f46e	0.102516994
139	0xbcec1db6	-0.028822761
140	0xbdaa06c4	-0.08302072
141	0x3bc8e3dd	0.006130679
142	0x3d33a2a9	0.043856297
143	0xbe24ee9d	-0.16106649
144	0xbdcd5e82	-0.100277916
145	0xbd0392c0	-0.032122374
146	0xbd94ad90	-0.07259667
147	0x3d5a9ce9	0.053372297
148	0xbdc58e88	-0.09646326
149	0x3dad9cba	0.08477159
150	0xbe0d2d88	-0.137869
151	0x3e2bbcb6	0.16771206
152	0xbe545b03	-0.20737843
153	0xbdf0dbcf	-0.11760675
154	0x3da53441	0.08066607
155	0x3d05979e	0.032615297
156	0xbd7fafbd	-0.062423456
157	0x3dcd0533	0.10010757
158	0x3d4a5c2c	0.04940431
159	0xb9d4e813	-0.000406087
160	0xbd2b4f30	-0.041823566
161	0x3d28539c	0.04109536
162	0x3d6c4f1a	0.057692625
163	0xbdceaffe	-0.100921616
164	0xbbe734cf	-0.007055856
165	0x3d512a8a	0.05106596
166	0x3dc28777	0.09498494
167	0xbcce7321	-0.025201382
168	0x3c99d793	0.018779552
169	0xbdf798c4	-0.120896846
170	0x3db4ee77	0.08834546
171	0x3cf4a0c0	0.029861808
172	0xbd800ad4	-0.06252065
173	0xbd70cf5d	-0.058791507
174	0x3dfac216	0.1224405
175	0xbe600a98	-0.21879041
176	0x3c28dfd8	0.010307275
177	0x3da3e82d	0.080032684
178	0x3df56420	0.11981988
179	0x3d4685db	0.0484675
180	0xbe0fe4fa	-0.14052191
181	0xbd20b575	-0.03923555
182	0xbd23dab3	-0.04000349
183	0xbdd2960e	-0.10282527
184	0xbe1e24e5	-0.15443762
185	0x3d99e938	0.07515186
186	0xbd64fe18	-0.055906385
187	0x3c95c043	0.018280154
188	0xbdaec9b4	-0.085345656
189	0xbd939706	-0.0720654
190	0x3d49f138	0.04930231
191	0xbdd31353	-0.1030642
192	0x3ca3e7bf	0.020007966
193	0xbdd379c9	-0.10325963
194	0x3da89072	0.08230676
195	0x3ddb4d96	0.10708158
196	0xbe275a7d	-0.16343112
197	0x3c9275e3	0.017878478
198	0x3d83b086	0.064301535
199	0xbb31534a	-0.00270577
200	0x3c7039e4	0.01466224
201	0x3d52f64f	0.05150443
202	0xbd509349	-0.050921712
203	0x3e451d09	0.19249357
204	0xbcba8a7c	-0.022771113
205	0xbcb48e33	-0.022040462
206	0x3dce6a6f	0.10078894
207	0x3e18e64c	0.14931601
208	0x3dc6dcfd	0.09710119
209	0x3dc28e97	0.09499853
210	0xbdb15be6	-0.08660106
211	0xbd76f9df	-0.06029689
212	0x3cbe0d00	0.023199558
213	0x3b7503ae	0.0037386226
214	0xbdae5994	-0.085131794
215	0x3e70f55c	0.23531097
216	0xbc3e5954	-0.011617977
217	0x3dbf22ff	0.09332847
218	0xbdcc7c55	-0.09984652
219	0x3d7a9759	0.061179493
220	0xbdc72b9f	-0.09725117
221	0x3e0cfe85	0.13768966
222	0xbdad937f	-0.08475398
223	0xbbe34975	-0.006936247
224	0x3e1b6eb5	0.1517895
225	0x3e163543	0.14668755
226	0x3c6e545e	0.014546482
227	0x3ce27d73	0.02764771
228	0xbbdbe830	-0.0067110285
229	0xbda44902	-0.08021738
230	0xbd68efe5	-0.056869406
231	0xbdb9411c	-0.09045622
232	0x3c7631d5	0.015026529
233	0xbd9c1f6c	-0.07623181
234	0xbdf6de09	-0.120540686
235	0x3bac2a9b	0.0052541024
236	0x3c9161d5	0.017746845
237	0xbd983e20	-0.074337244
238	0x3c10afd5	0.008830984
239	0xbddc9102	-0.107698455
240	0x3ce80883	0.028324371
241	0xbc65ffdc	-0.014038052
242	0xbdb837c8	-0.089950144
243	0x3c96d1fe	0.018410679
244	0xbd719b3c	-0.058985934
245	0xbe002cca	-0.12517086
246	0xbd7899ff	-0.060693737
247	0x3e0f5f69	0.1400124
248	0xbe27252f	-0.16322778
249	0xbdf72093	-0.1206676
250	0xbcb10cdb	-0.021612575
251	0xbe2c6837	-0.1683663
252	0x3dbdbd46	0.09264617
253	0x3d77dfb1	0.060516063
254	0xbdff6d7e	-0.12472056
255	0xbdb0d811	-0.086349614

output_weights f4 [3, 100]
0	0xbd4d43cc	-0.050113484
1	0x3cf5ddd0	0.030012995
2	0x3de18f5f	0.11013674
3	0xbd99d073	-0.07510462
4	0xbce5b8b6	-0.028042179
5	0xbc9a0279	-0.018800007
6	0xbc8a843f	-0.016908763
7	0x3da4c4c9	0.08045346
8	0x3d7ebdae	0.06219261
9	0x3e16174a	0.14657322
10	0xbdc0eea7	-0.09420519
11	0xbe756036	-0.23962483
12	0xbacd41c6	-0.0015659861
13	0xbd76c99e	-0.06025087
14	0x3d7c9a2c	0.061670467
15	0xbe1e00c8	-0.15429986
16	0x3bba5d72	0.005687409
17	0x3d93e661	0.07221676
18	0xbcdacafd	-0.02670812
19	0x3e782ce7	0.24235879
20	0x3d722036	0.05911275
21	0x3d7e1bb9	0.062038157
22	0x3d926dda	0.07149859
23	0x3f2f60ee	0.6850728
24	0xbda57ead	-0.08080802
25	0xbdda2f93	-0.10653605
26	0xbda9e5aa	-0.08295758
27	0xbdac0836	-0.084000036
28	0xbe4e8116	-0.2016643
29	0x3e77675c	0.24160522
30	0xbb7bc69c	-0.003841794
31	0xbf5117b6	-0.81676805
32	0x3e42bc15	0.1901706
33	0x3e0b146b	0.13582008
34	0x3d331aed	0.04372685
35	0xbd2c3eb3	-0.042051982
36	0x3da5689c	0.08076593
37	0xbdd7aeb7	-0.10531371
38	0xbcb8ad26	-0.022543501
39	0x3da4ca7c	0.08046433
40	0xbadb7f60	-0.0016746335
41	0x3ded5c63	0.11589887
42	0x3d0e58fc	0.03475283
43	0xbcf761fa	-0.030198086
44	0x3d48d3fa	0.04903028
45	0xbdebcacd	-0.115132906
46	0x3ec47a23	0.38374433
47	0x3db5d4e1	0.08878494
48	0x3da578e7	0.08079701
49	0xbda907bc	-0.08253428
50	0xbcf69c01	-0.030103685
51	0x3ddc1a52	0.10747208
52	0x3c2058f7	0.009786836
53	0xbd808502	-0.06275369
54	0x3d517623	0.051138055
55	0xbdd71e32	-0.10503806
56	0x3c99f15c	0.018791847
57	0x3e18ce0a	0.14922348
58	0x3e9fec0b	0.31234774
59	0xbdeaca81	-0.11464406
60	0xbdbefd25	-0.09325627
61	0xbd9ce952	-0.0766169
62	0x3decb6c2	0.11558296
63	0x3d95fd58	0.07323712
64	0xbd99dfb2	-0.075133696
65	0xbde0ee97	-0.109830074
66	0x3dad0557	0.08448284
67	0xbdbfc17f	-0.09363078
68	0xbdd9569d	-0.10612223
69	0xbe096abf	-0.13419627
70	0x3e6beabb	0.23038761
71	0x3e3329bb	0.17496388
72	0xbd7dd9ad	-0.06197517
73	0x3e362750	0.17788434
74	0xbdf1c0bb	-0.118043385
75	0xbf26faf7	-0.6522669
76	0x3d9893c1	0.07450057
77	0x3d85f068	0.065399945
78	0x3c31a573	0.010842669
79	0x3e04daf6	0.12974152
80	0xbd278cdf	-0.04090583
81	0x3e6a396a	0.22873464
82	0xbd20972a	-0.03920666
83	0xbd5eb183	-0.054368507
84	0x3e06496d	0.13113947
85	0x3e9e5d48	0.30930543
86	0xbd039d73	-0.032132577
87	0x3a7d10aa	0.0009653667
88	0xbd2a3813	-0.041557383
89	0x3c463a5e	0.012098877
90	0xbdc74e54	-0.09731737
91	0x3d105b48	0.035243303
92	0x3dbcb10d	0.09213457
93	0x3cc70b62	0.02429742
94	0xbe711ab5	-0.23545344
95	0x3dde0dc3	0.108424686
96	0xbd0a479b	-0.033759695
97	0x3ddd0afb	0.1079311
98	0xbd99c5c4	-0.07508424
99	0xbde4554c	-0.111490816
100	0xbd2876c1	-0.041128878
101	0x3c868efa	0.016425598
102	0xbb3c2f63	-0.0028714768
103	0x3c936061	0.017990293
104	0xbd117a53	-0.035517048
105	0xbdff231f	-0.12457871
106	0xbd920970	-0.07130706
107	0xbd0a82d6	-0.03381618
108	0x3c5c5417	0.013447783
109	0xbc966c06	-0.018362056
110	0xbe07cd23	-0.13261847
111	0xbe66995c	-0.2251944
112	0xbbf48740	-0.007462412
113	0xbdb76f3a	-0.08956762
114	0xbccc3558	-0.02492778
115	0xbc3f6e97	-0.0116840815
116	0xbe428b5d	-0.18998475
117	0x3db63dc8	0.088985026
118	0xbea0747a	-0.31338865
119	0x3e372ff6	0.1788939
120	0x3b77b754	0.003779848
121	0xbdc34a81	-0.09535695
122	0xbd25928b	-0.040422957
123	0x3c62376e	0.013807161
124	0x3e35746b	0.17720191
125	0x3e00a95c	0.12564605
126	0x3d50e7c1	0.051002268
127	0xbd8b07e8	-0.06788617
128	0xbf2124a8	-0.6294656
129	0xbcace32d	-0.02110442
130	0xbc7a3cd4	-0.015273292
131	0xbccca900	-0.02498293
132	0xbd627699	-0.055288885
133	0xbdc10757	-0.09425228
134	0x3deb1578	0.11478704
135	0xbd7f35ff	-0.062307354
136	0xbba33da7	-0.0049817148
137	0xbd9a7d85	-0.07543472
138	0xbf343342	-0.70390713
139	0xbd9827c8	-0.07429463
140	0x3bdcdd04	0.0067402143
141	0x3e324598	0.1740936
142	0x3caaa033	0.020828342
143	0x3dbb8385	0.09155945
144	0x3dba03de	0.09082769
145	0xbd7a08ad	-0.06104343
146	0x3e00282c	0.12515324
147	0xbe0a8dfe	-0.13530728
148	0xbd83cad1	-0.064351685
149	0xbb029733	-0.0019926548
150	0xbb18aa51	-0.0023294876
151	0x3e06d1fe	0.13166043
152	0xbe5943e7	-0.21217309
153	0x3d962ed6	0.07333152
154	0xbd530cbf	-0.051525827
155	0xbcacc4dc	-0.021089964
156	0x3e945e99	0.28978422
157	0xbd2eb63e	-0.04265427
158	0xbbe312ea	-0.006929745
159	0xbd84d8e7	-0.06486683
160	0x3e4bd2f6	0.19904694
161	0xbbc26b84	-0.005933227
162	0xbe0d9026	-0.1382452
163	0xbe635f23	-0.2220426
164	0x3dd5c685	0.10438255
165	0x3cc5c575	0.024142006
166	0x3c9935d8	0.018702433
167	0x3ca7231a	0.02040248
168	0x3e094170	0.13403869
169	0xbd20afee	-0.03923028
170	0xbe2db38b	-0.16963021
171	0x3e1bd04e	0.1521618
172	0xbd292e20	-0.041303754
173	0x3d4c1352	0.049823113
174	0xbe81f45a	-0.25381738
175	0xbd49b9f1	-0.049249593
176	0xbea6cd78	-0.32578635
177	0x3d9172b9	0.0710196
178	0x3d39c7be	0.045356505
179	0xbd0dacc4	-0.03458859
180	0x3da34569	0.07972223
181	0xbdbd7789	-0.09251315
182	0x3e6668b7	0.22500883
183	0x3ea182f8	0.31545234
184	0x3e02d8c3	0.12778
185	0xbd5aaf76	-0.05338999
186	0x3e398293	0.18116216
187	0xbdf2bd80	-0.118525505
188	0x3d49bd22	0.049252637
189	0xbd7a7cc8	-0.061154157
190	0x3d802aa4	0.06258133
191	0x3b60ddad	0.0034311817
192	0xbd26db79	-0.04073665
193	0x3d0dbd91	0.034604613
194	0x3f0b65e1	0.5445233
195	0x3ea620e8	0.3244698
196	0xbb5c4708	-0.0033611674
197	0xbd401a2c	-0.04689996
198	0xbe16c0e2	-0.14722016
199	0x3cc1ff52	0.023681317
200	0x3e1c50b5	0.15265162
201	0x3d954e87	0.072903685
202	0x3d18a40e	0.03726583
203	0xbe42a352	-0.19007614
204	0x3b7b2c1c	0.0038325852
205	0xbd89165d	-0.066937186
206	0x38d14559	9.9788136e-05
207	0xbd88c81d	-0.066787936
208	0x3dc5c3c6	0.096564814
209	0xbe0d0a50	-0.13773465
210	0x3d65b936	0.056084834
211	0x3dab2053	0.08355775
212	0x3d20b384	0.0392337
213	0x3de69ec7	0.11260753
214	0x3de68a3f	0.11256837
215	0xbe2194c9	-0.15779413
216	0xbdb655fe	-0.089031205
217	0xbd50167c	-0.050802693
218	0xbc68d2eb	-0.014210443
219	0xbcc6a64d	-0.02424922
220	0x3c811988	0.015759245
221	0x3e4249b1	0.18973424
222	0x3e0aec67	0.13566743
223	0x3d0da1b0	0.034578025
224	0xbe972121	-0.29517463
225	0x3c8ca292	0.017167363
226	0x3ca4ee4d	0.020133162
227	0xbdbf78b9	-0.09349198
228	0xbd9433fb	-0.07236477
229	0x3db66e74	0.08907786
230	0x3e4c464d	0.19948693
231	0x3c940fff	0.018074034
232	0xbe3a6de7	-0.18205987
233	0xbd2ffde8	-0.042966753
234	0xbe2db3d6	-0.16963133
235	0x3e177af9	0.14793004
236	0x3d816ade	0.063192114
237	0x3e1ca98a	0.15299049
238	0xbc4ccff1	-0.012500749
239	0xbbe070a3	-0.006849365
240	0x3dd8d24c	0.10586986
241	0x3db98662	0.090588346
242	0xbda13bc3	-0.07872727
243	0xbe2f9550	-0.17146802
244	0x3d9da173	0.076968096
245	0xbdc3e4c0	-0.09565115
246	0x3de59731	0.11210478
247	0x3e159b10	0.14609933
248	0x3da23dc4	0.07921937
249	0x3db15bef	0.08660113
250	0x3f38d1e7	0.72195286
251	0x3e491f9c	0.19640964
252	0xbd531256	-0.05153116
253	0x3dcdde49	0.10052163
254	0x3e6799b6	0.2261723
255	0x3def058c	0.1167098
