models/twobit2500.pth (torch, 43369 bytes, 3 tensors)

input_weights f4 [100, 2]
0	0xbe06cda2	-0.1316438
1	0x3dfb1878	0.122605264
2	0x3df1209a	0.117737964
3	0x3e63e707	0.22256099
4	0xbe260c4c	-0.16215628
5	0xbde86872	-0.11348046
6	0xbd423894	-0.04741724
7	0x3efd495f	0.4947004
8	0x3e24df3c	0.16100782
9	0x3d7643a4	0.0601231
10	0x3f93cc6b	1.1546758
11	0xbe3bb9fc	-0.18332666
12	0xbde8dc02	-0.11370088
13	0x3f2dea8a	0.67936003
14	0xbe0f60e2	-0.14001802
15	0xbf0bcac4	-0.5460627
16	0xbec62c88	-0.3870585
17	0xbe21d267	-0.15802918
18	0x3fa2d97d	1.2722622
19	0xbdbfc46f	-0.093636386
20	0xbf17b48a	-0.59259856
21	0x3d4c11c7	0.04982164
22	0x3eff4aeb	0.49861845
23	0x3e949f23	0.29027662
24	0xbe851aad	-0.25996915
25	0x3e3d9866	0.18515167
26	0x3ec02453	0.37527713
27	0xbebc2f0d	-0.36754647
28	0xbe78bf96	-0.24291834
29	0xbd05e9eb	-0.032693785
30	0xbdd31be8	-0.10308057
31	0x3ef9d79d	0.48797312
32	0x3c507037	0.012722067
33	0xbf6ec6b1	-0.9327193
34	0x3e69c6bc	0.22829717
35	0xbe8006f6	-0.2500531
36	0x3cfb0488	0.03064181
37	0xbfa6f473	-1.304335
38	0x3e7a4263	0.24439387
39	0xbea4765e	-0.32121557
40	0xbd316955	-0.043313343
41	0xbfd5f9d3	-1.6716865
42	0xbee75006	-0.4517824
43	0x3e87e955	0.26545206
44	0xbeb8f8e2	-0.36127383
45	0xbd8f1428	-0.069862664
46	0xbea09c18	-0.3136909
47	0x3d34991b	0.044091325
48	0x3ef5016b	0.47852644
49	0x3d6634ef	0.056202825
50	0x3bfe2fe6	0.007757175
51	0x3f87c073	1.0605606
52	0xbce77b4b	-0.028257033
53	0xbf01cfbd	-0.5070761
54	0x3e92be19	0.28660658
55	0x3e724ec7	0.23662864
56	0xbe167a1d	-0.1469502
57	0x3decbb97	0.115592174
58	0xbfc1b104	-1.5132146
59	0x3ccc411b	0.024933388
60	0xbeed0f80	-0.46300888
61	0x3e700947	0.23441039
62	0x3e0da27c	0.13831514
63	0x3f5fbdff	0.87399286
64	0x3db308e0	0.08741927
65	0x3bf1609e	0.007366254
66	0xbdf40aed	-0.119161464
67	0x3e9b98b4	0.3038994
68	0xbeb40eca	-0.35167533
69	0xbea80083	-0.3281289
70	0x3f0a780e	0.5408944
71	0x3e9eae83	0.30992517
72	0x3e576dc2	0.21037963
73	0x3eddaadb	0.43294415
74	0x3f057198	0.52126455
75	0x3dfc8bb7	0.12331336
76	0x3e5599be	0.20859429
77	0x3e6aecf2	0.2294195
78	0xbe4ff4d3	-0.20308237
79	0x3e1df8a5	0.15426882
80	0x3eae5f65	0.34057155
81	0x3e946773	0.28985175
82	0x3e575ce6	0.21031532
83	0x3e8070a5	0.2508594
84	0x3f0e10d9	0.5549446
85	0xbdca329d	-0.09872935
86	0x3e3059d9	0.17221774
87	0xbdf1e93b	-0.11812063
88	0x3ec2ee17	0.38072273
89	0x3e50ea9b	0.20401995
90	0xbd45f5b4	-0.048330024
91	0xbf14251e	-0.57869136
92	0x3e3b38de	0.18283412
93	0xbf1a4b55	-0.602712
94	0x3f35a869	0.709601
95	0xbb126569	-0.0022338277
96	0xbf025389	-0.50908715
97	0xbe1eef58	-0.1552099
98	0x3d8f34dd	0.06992505
99	0xbd7ae047	-0.061249044
100	0x3e9a7c6f	0.3017306
101	0xbdae5dc5	-0.08513979
102	0x3f289ccc	0.65864253
103	0xbced0775	-0.02893422
104	0xbe75dbad	-0.24009581
105	0xbd8f9137	-0.070101194
106	0xbe4158f2	-0.18881586
107	0x3f3dc79b	0.741327
108	0xbd3315d9	-0.043722007
109	0x3db2680b	0.08711251
110	0x3e95f280	0.29286575
111	0x3e99981f	0.29998872
112	0xbe630466	-0.22169647
113	0xbea494d6	-0.32144803
114	0x3dd1fab4	0.10252896
115	0xbf6d5822	-0.92712605
116	0xbe12dfa6	-0.14343128
117	0x3e3d6a5b	0.18497603
118	0x3d9a583e	0.07536362
119	0x3eccb41c	0.39981163
120	0x3dc501d8	0.09619492
121	0x3ec83f8c	0.39110982
122	0xbea754a3	-0.3268176
123	0x3dfd779e	0.12376331
124	0xbf062503	-0.52400225
125	0x3cdb9a5d	0.026807005
126	0xbea532ec	-0.32265413
127	0x3bea9fba	0.007160154
128	0x3dee7fb9	0.11645455
129	0xbe4d34c7	-0.20039664
130	0xbde6dca7	-0.11272555
131	0x3ec79778	0.3898275
132	0xbd32917a	-0.04359577
133	0xbe6f74bf	-0.23384379
134	0x3e3dbba7	0.18528615
135	0x3d69f9e5	0.057123084
136	0x3b66e957	0.0035234296
137	0x3f214457	0.62994903
138	0xbf096b85	-0.53679687
139	0x3d887a64	0.06663969
140	0xbefd3c9b	-0.494603
141	0x3e0d8d0e	0.1382334
142	0x3f11f762	0.570181
143	0x3e3d3aa1	0.18479396
144	0xbd5acee8	-0.053419977
145	0x3e60291d	0.21890683
146	0x3e1075e8	0.14107478
147	0x3e87dba2	0.26534754
148	0xb9c8d713	-0.00038307215
149	0x3e2a7bfa	0.16648856
150	0x3dd39d47	0.10332733
151	0xbe950457	-0.29104874
152	0x3f0b8a36	0.5450777
153	0xbd4015d7	-0.046895828
154	0x3d686126	0.056733273
155	0xbe818b8f	-0.25301787
156	0x3dc6c550	0.09705603
157	0x3acabf9e	0.0015468483
158	0x3edd6341	0.43239787
159	0x3db1ffba	0.08691354
160	0x3e4771fa	0.19477072
161	0x3ef3a646	0.47587794
162	0x3e0b3153	0.13593034
163	0xbf112ea4	-0.5671179
164	0xbfa6c5ad	-1.3029076
165	0xbdabdb3f	-0.08391427
166	0x3e6b526c	0.2298066
167	0x3d0b8016	0.0340577
168	0xbe0bebf3	-0.13664226
169	0xbe10a43d	-0.14125152
170	0x3d9b7584	0.07590774
171	0x3fc4ce73	1.5375503
172	0x3fa5ce09	1.2953502
173	0x3c39bc70	0.011336431
174	0x3e9dd95f	0.30829903
175	0xbe210ac7	-0.15726767
176	0xbe04811a	-0.12939873
177	0x3dee3197	0.11630552
178	0x3e7c18ab	0.24618785
179	0x3e9e7379	0.30947474
180	0xbe858f85	-0.2608606
181	0xbe43d655	-0.1912473
182	0x3d1ce244	0.03830172
183	0x3e86849e	0.26273054
184	0x3de70e22	0.112819925
185	0xbed50d67	-0.41611788
186	0x3d3cd021	0.046096925
187	0xbec4d7ac	-0.38445795
188	0xbd8c7828	-0.068588555
189	0x3f153fe0	0.5830059
190	0xbdd1ab84	-0.10237792
191	0xbf469d77	-0.7758402
192	0xbe9476ac	-0.2899679
193	0x3e6992d4	0.22809917
194	0x3e8d89a9	0.2764409
195	0x3e922fc1	0.28552058
196	0xbea132bf	-0.3148403
197	0x3e3e3161	0.18573524
198	0x3ce94c09	0.02847864
199	0xbf8033d7	-1.001582

recurrent_weights f4 [100, 100]
0	0xbe48a349	-0.19593538
1	0x3d22fd77	0.039792504
2	0xba9b217d	-0.0011835542
3	0x3d1a84c9	0.03772429
4	0xbcd13bbe	-0.025541183
5	0xbd7bd49f	-0.06148207
6	0x3db8b39d	0.090186335
7	0xbd1363c0	-0.0359838
8	0x3bd88898	0.00660808
9	0x3d001941	0.031274084
10	0xbc99f0c1	-0.018791558
11	0xbdac3b30	-0.084097266
12	0xbc7810b7	-0.015140704
13	0xbe3c351e	-0.18379638
14	0xbcf90385	-0.030397186
15	0xbd86d1ee	-0.0658301
16	0x3e0d5eed	0.13805743
17	0xbd60e130	-0.054902256
18	0x3df72fd3	0.120696686
19	0x3e113d6c	0.14183587
20	0xbd2d3417	-0.042286005
21	0x3e270721	0.16311313
22	0x3df6f3eb	0.120582424
23	0x3e140162	0.14453653
24	0xbdb47e10	-0.08813107
25	0x3e0e2e5d	0.13884874
26	0x3e187812	0.14889553
27	0xbd17bd1e	-0.03704559
28	0x3defebbb	0.11714884
29	0x3ae1536a	0.0017190997
30	0x3d504e5a	0.050855972
31	0xbe01b253	-0.12665682
32	0xbd8d5c41	-0.06902362
33	0x3d6d9b68	0.058009535
34	0xbd9728db	-0.073808394
35	0x3d4f1293	0.050554823
36	0xbdd58e15	-0.104274906
37	0xbd641447	-0.0556834
38	0x3d7d7482	0.06187869
39	0x3e81a6c0	0.25322533
40	0x3afd16c6	0.0019309155
41	0x3cbe5b17	0.023236794
42	0x3b450b0d	0.0030066401
43	0xbdb312dd	-0.08743832
44	0xbe0db980	-0.13840294
45	0x3de92b87	0.11385255
46	0x3da32e9c	0.079678744
47	0xbca45985	-0.020062217
48	0x3e8d17ad	0.27557126
49	0x3b3dc499	0.0028956293
50	0x3e3fe493	0.18739538
51	0xbd070382	-0.03296233
52	0xbd802d5e	-0.06258653
53	0x3ea16020	0.3151865
54	0x3db6d1dd	0.08926747
55	0x3db5907d	0.088654496
56	0xbd86924c	-0.06570873
57	0xbd785e23	-0.06063665
58	0x3dc6e87e	0.09712313
59	0xbdd13cfa	-0.102167085
60	0x3e1d0cf6	0.15336975
61	0x3cbf5552	0.023356114
62	0x3ba0a73d	0.004902749
63	0x3d5ac64d	0.05341177
64	0xbe31cabb	-0.17362492
65	0x3dae8cbf	0.08522939
66	0xbda44669	-0.08021242
67	0xbde58498	-0.11206931
68	0x3e8c15ff	0.27360532
69	0xbc006824	-0.007837329
70	0x3e0c6b09	0.13712706
71	0xbc8a7a5b	-0.016904047
72	0x3a47e4ac	0.00076253223
73	0x3e06d8fb	0.13168709
74	0x3dcdc240	0.10046816
75	0x3da3a9b0	0.0799135
76	0x3cacceee	0.021094766
77	0x3d291cf5	0.04128738
78	0xbaba4dbb	-0.0014213839
79	0xbd94a915	-0.07258812
80	0x3d621287	0.05519345
81	0xbdadde4e	-0.08489667
82	0xbe4d2ac3	-0.20035844
83	0x3c67b6d1	0.014142708
84	0x3d60e7e9	0.054908667
85	0xbdf04535	-0.1173195
86	0xbd242979	-0.040078614
87	0xbce06c22	-0.027395312
88	0xbd14b6ff	-0.03630733
89	0x3bcafce4	0.0061946977
90	0xbd6e903f	-0.058243033
91	0xbde4f691	-0.11179841
92	0xbc5a13d7	-0.013310394
93	0xbd1b866f	-0.037970003
94	0x3dd08a87	0.10182672
95	0xbe6d4fac	-0.23174924
96	0x3e0e52fa	0.1389884
97	0x3d4dd1c0	0.05024886
98	0xbdc7bf34	-0.09753266
99	0xbe5a4a88	-0.21317494
100	0x3cf19a4e	0.029492524
101	0xbe575aae	-0.21030685
102	0x3dd3956c	0.10331234
103	0x3dda03b7	0.1064524
104	0xbe1bae5d	-0.15203233
105	0xbcf42a1e	-0.02980524
106	0x3c95f748	0.01830639
107	0x3cb3e74c	0.021960877
108	0x3d29d7f9	0.041465733
109	0xbda0522a	-0.078281716
110	0x3c7a833e	0.01529008
111	0xbe6a15af	-0.22859834
112	0xbc8bceaa	-0.017066319
113	0xbddc2946	-0.1075006
114	0xbdf6dee6	-0.12054233
115	0xbcf4bf88	-0.029876485
116	0xbd89a56c	-0.06721005
117	0xbe03bc52	-0.12864807
118	0xbde344c4	-0.110971004
119	0xbdbe12e9	-0.092809506
120	0x3d88b0cc	0.06674346
121	0x3d15f331	0.03660888
122	0xbd135f7a	-0.035979725
123	0x3dc81c12	0.09770979
124	0x3d66a955	0.05631383
125	0x3db78b48	0.08962113
126	0x3b52e8a6	0.0032182126
127	0xbe003486	-0.12520036
128	0xbd5aa48d	-0.053379584
129	0xbd5baf45	-0.053633947
130	0x3df99bc4	0.12187913
131	0xbd87797e	-0.0661497
132	0x3ca0fcfd	0.019651884
133	0x3e2a13b2	0.16609076
134	0x3e125938	0.14291847
135	0xbda1c0ff	-0.07898139
136	0x3d9d24fd	0.076730706
137	0x3e0b1898	0.135836
138	0xbdae8105	-0.08520702
139	0x3dcaff68	0.09911996
140	0x3b6f5d35	0.0036524062
141	0xbda7f02e	-0.082001075
142	0xbcd6b3a5	-0.026208708
143	0xbd0407c0	-0.032233953
144	0xbdcfd713	-0.10148444
145	0x3cfb0933	0.030644035
146	0xbcc969db	-0.024586609
147	0xbd4b700a	-0.049667396
148	0xbdcadafb	-0.099050485
149	0xbc0f7e14	-0.008758087
150	0x3b887752	0.0041646147
151	0xbe29d2d7	-0.16584335
152	0xbce22678	-0.027606234
153	0x3d9c4cee	0.07631861
154	0x3da2a28a	0.07941158
155	0xbca2aeab	-0.019858679
156	0x3e047e9b	0.12938921
157	0x3df82a55	0.12117449
158	0x3db36983	0.08760359
159	0x3e17f0ca	0.14837947
160	0xbde451ea	-0.11148436
161	0x3cf6fe54	0.03015057
162	0xbbfed3c8	-0.007776711
163	0xbd88d4dd	-0.066812254
164	0xbdac76c4	-0.0842109
165	0x3df915a4	0.12162331
166	0xbd73fc82	-0.059566982
167	0xbb40f123	-0.0029440604
168	0x3e3612f6	0.1778067
169	0xbc313d5d	-0.010817853
170	0x3d0e2bde	0.034709804
171	0x3e2e6a45	0.17032726
172	0xbd045037	-0.03230306
173	0x3d585f78	0.05282542
174	0x3d00dadb	0.031458717
175	0xbd2f4674	-0.0427918
176	0xbd841f1e	-0.06451248
177	0xbb9e4128	-0.0048295446
178	0xbb8b1eee	-0.0042456305
179	0x3d732909	0.059365306
180	0xbe27e6e4	-0.16396672
181	0xbda34ded	-0.079738475
182	0x3c2eb47e	0.01066315
183	0xbd3abb6c	-0.045588896
184	0x3dbcf5c0	0.092265606
185	0x3b4e80a3	0.003150978
186	0xbd858ae7	-0.06520634
187	0xbde203d5	-0.11035887
188	0xba19cab6	-0.0005866693
189	0x3dae2117	0.08502405
190	0x3c51d882	0.012807967
191	0xbcc2680d	-0.023731256
192	0xbd386a59	-0.045023296
193	0xbd2fb6ac	-0.04289882
194	0xbc0caf5b	-0.00858673
195	0x3d48c899	0.04901943
196	0x3da5c24f	0.08093702
197	0xbd021532	-0.031758495
198	0x3d113ce0	0.035458446
199	0x3dc6633a	0.09686895
200	0xbe1969c9	-0.1498176
201	0xbe18a6b8	-0.14907348
202	0xbe42f2e2	-0.19037965
203	0x3e116254	0.14197665
204	0x3cc2c3f7	0.023775084
205	0x3d399bf0	0.04531473
206	0x3de40ec8	0.11135632
207	0x3d89603e	0.0670781
208	0x3cdcec75	0.02696822
209	0x3c171d33	0.00922327
210	0xbdbb178d	-0.09135351
211	0xbd160ff8	-0.036636323
212	0x3ca4634f	0.020066885
213	0x3d5aa736	0.05338212
214	0x3ccc88f8	0.024967656
215	0xbe044bfd	-0.12919612
216	0x3e2ecaf6	0.17069611
217	0x3dc979fa	0.09837718
218	0x3e3520ec	0.1768834
219	0x3e18f566	0.14937362
220	0xbd625f57	-0.055266704
221	0x3db0bca1	0.08629728
222	0xbc19be4a	-0.009383747
223	0x3ce44189	0.02786328
224	0x3e10a6f4	0.14126188
225	0x3c8d8361	0.01727456
226	0xbd3acdcc	-0.04560642
227	0xbd0ac847	-0.033882406
228	0x3da5849a	0.08081932
229	0x3d596bd8	0.053081363
230	0xbe0dd249	-0.13849749
231	0xbe042cf6	-0.12907776
232	0x3e1468da	0.14493123
233	0x3df125e6	0.11774807
234	0x3c4ca1f1	0.012489782
235	0x3cd99a7f	0.026562927
236	0xbcfbe91c	-0.030750804
237	0x3c6dd0b1	0.014515088
238	0xbd4c5533	-0.04988594
239	0xbda8b0de	-0.0823686
240	0xbe1ebbad	-0.1550128
241	0x3d88b8a9	0.06675846
242	0x3d79b18e	0.060960345
243	0x3e394c4d	0.18095513
244	0xbc45b3cf	-0.0120667955
245	0x3bfbfd41	0.0076901023
246	0x3df0f39a	0.11765213
247	0x3e4884b0	0.19581866
248	0xbd5aa64a	-0.05338124
249	0xbdaa1f3a	-0.08306737
250	0x3df83c67	0.12120896
251	0x3de72180	0.112856865
252	0x3de62d34	0.112390906
253	0xbe0efef9	-0.13964452
254	0xbe59a4a6	-0.21254215
255	0xbe0d5bad	-0.13804503

output_weights f4 [2, 100]
0	0x3e02fe78	0.12792385
1	0x3dd33d5b	0.10314437
2	0x3bfee30e	0.007778532
3	0xbcd5fe4b	-0.026122233
4	0x3d5fa459	0.054600094
5	0x3ed2a445	0.41140953
6	0xbd9286b1	-0.071545966
7	0xbe2493a6	-0.16071948
8	0x3dd17b3c	0.10228583
9	0x3ef950a5	0.4869434
10	0xbdf1084a	-0.11769159
11	0xbdceed04	-0.10103801
12	0x3d80c9d9	0.062884994
13	0x3c0839f8	0.008314602
14	0x3d90237b	0.07038017
15	0x3cd16a42	0.025563363
16	0x3c915f79	0.01774572
17	0xbe27273d	-0.16323562
18	0xbcf6d3cd	-0.030130291
19	0x3d7209bc	0.059091315
20	0x3e67db28	0.22642195
21	0xbe65c496	-0.22438273
22	0x3d388750	0.04505092
23	0x3cc29ef5	0.023757437
24	0x3d480550	0.04883319
25	0xbd5a0a9b	-0.05323277
26	0x3d8bd2aa	0.0682729
27	0x3d13c1ef	0.03607362
28	0x3d517561	0.051137332
29	0xbf23c436	-0.6397127
30	0xbe249ee9	-0.16076244
31	0xbce9c7c5	-0.02853764
32	0xbe8def0a	-0.27721435
33	0x3d0cae86	0.034346126
34	0xbd8c2e51	-0.06844772
35	0x3d8b9ca2	0.06816985
36	0x3cadebfc	0.02123069
37	0x3e028d02	0.12749103
38	0xbb956052	-0.0045586014
39	0xbea413de	-0.32046407
40	0x3ddf836c	0.109137386
41	0xbdfe6060	-0.12420726
42	0x3cac856d	0.021059716
43	0xbe04af3a	-0.12957469
44	0x3d9999c5	0.07500032
45	0xbe6731e8	-0.22577631
46	0x3dfbca66	0.12294464
47	0xbdc20849	-0.094742365
48	0xbd0e2c8d	-0.034710456
49	0x3b5deb92	0.0033862335
50	0xbd633750	-0.055472672
51	0xbc19ec41	-0.009394706
52	0xbdf3a066	-0.11895828
53	0x3d59862a	0.053106464
54	0x3e753450	0.23945737
55	0xbc793f5f	-0.015212863
56	0xbe836110	-0.2565999
57	0xbe62a799	-0.22134246
58	0xbedb100f	-0.4278569
59	0x3aa8aab5	0.0012868257
60	0x3da754d4	0.081704766
61	0x3dc08822	0.09400965
62	0x3d89aff6	0.06723015
63	0xba0f92cb	-0.0005476891
64	0x3e55adbf	0.2086706
65	0x3ce26c1a	0.027639437
66	0xbdb34d82	-0.08755018
67	0x3cfe8e81	0.03107381
68	0x3ddca9ea	0.10774596
69	0xbcc81380	-0.02442336
70	0xbdacec04	-0.08443454
71	0x3dd522b7	0.10407012
72	0xbe16d124	-0.14728218
73	0x3e2e5e42	0.17028144
74	0x3b4c6d39	0.0031193031
75	0xbce2b000	-0.027671814
76	0xbcb4b132	-0.02205715
77	0xbd5f4d9a	-0.054517366
78	0x3e26788e	0.16256925
79	0x3d766585	0.06015541
80	0xbd7d990d	-0.06191354
81	0x3e4af7a8	0.19821036
82	0xbea3daee	-0.32002968
83	0x3e3e6f91	0.18597247
84	0xbe541780	-0.2071209
85	0x3e074ae1	0.13212158
86	0x3eb7b349	0.3587897
87	0xbbe64386	-0.0070270924
88	0xbe909c49	-0.28244236
89	0x3da727ba	0.08161874
90	0xbc14d05c	-0.00908288
91	0xbb00a029	-0.0019626713
92	0x3e3bedfb	0.18352501
93	0x3dfe644e	0.12421475
94	0xbcab2854	-0.020893253
95	0xbd446697	-0.0479494
96	0x3c934eb1	0.017981859
97	0x3d1c199e	0.038110368
98	0x3db56648	0.08857399
99	0x3c99c220	0.018769324
100	0xbe3e9e7b	-0.18615143
101	0x3d52e441	0.05148721
102	0x3d7c03c4	0.06152703
103	0x3dfd3d8a	0.12365253
104	0xbcb624bc	-0.022234313
105	0xbe6fa445	-0.23402508
106	0x3b90f2a6	0.004423457
107	0xbe261977	-0.16220652
108	0x3d00b4cb	0.031422418
109	0xbca5d645	-0.020243773
110	0xbcee7d0f	-0.029112367
111	0xbcfbd870	-0.030742854
112	0x3e93447a	0.2876318
113	0xbc9d2a1e	-0.019185122
114	0x3c142f96	0.0090445485
115	0x3b8b5141	0.0042516296
116	0xbe8d1549	-0.27555302
117	0xbde6de0a	-0.11272819
118	0xbeeccb14	-0.46248686
119	0xbd0be231	-0.03415126
120	0xbf139354	-0.5764668
121	0x3dacfd3f	0.0844674
122	0x3dc46213	0.09589019
123	0x3e5af81c	0.21383709
124	0x3dda73f7	0.1066665
125	0x3e5d3255	0.21601231
126	0xbd9a755d	-0.075419165
127	0x3d4a0fbe	0.04933142
128	0x3e1ff85e	0.15622088
129	0xbd06059a	-0.032720186
130	0xbe391c8d	-0.18077298
131	0x3d5a4626	0.053289555
132	0xbd87e6a1	-0.06635786
133	0xbd92c3ab	-0.07166227
134	0x3db483d2	0.08814205
135	0x3e9a0f70	0.30089903
136	0x3c0bcaa4	0.0085322
137	0xbd2a3c34	-0.04156132
138	0x3cd12d8d	0.025534416
139	0x3dba5e8a	0.09100063
140	0x3ccdf04b	0.025138995
141	0x3e06a05b	0.13147108
142	0xbe2372d5	-0.15961774
143	0x3d11ea11	0.035623614
144	0x3a7e5809	0.00097024493
145	0xbe2f2fc4	-0.17108065
146	0xbe59cf37	-0.21270452
147	0xbd554bb9	-0.052074168
148	0x3d801555	0.06254069
149	0xbdc59256	-0.09647052
150	0x3dbff92b	0.09373697
151	0x3d748f12	0.059706755
152	0x3daea82f	0.08528172
153	0x3e780e71	0.24224259
154	0x3b980f97	0.0046405303
155	0xbdd01f9c	-0.10162279
156	0xbe84dd0a	-0.2594989
157	0xbe898554	-0.26859534
158	0x3e6684e5	0.22511633
159	0x3e0c18d0	0.1368134
160	0xbdecdd96	-0.11565702
161	0x3d5be0c2	0.053681143
162	0xbc061951	-0.008184747
163	0xbe504c8d	-0.20341702
164	0x3d55ffe5	0.052245993
165	0x3e1641c3	0.14673524
166	0x3d01794e	0.031609826
167	0x3bbb1291	0.0057090004
168	0xbdb3b13a	-0.08774038
169	0xbdf891ba	-0.1213717
170	0x3c2f6f63	0.010707709
171	0xbe4e4204	-0.2014237
172	0xbda338b2	-0.07969798
173	0x3d74d8ff	0.059777256
174	0x3dc8300e	0.09774791
175	0xbda7aefb	-0.08187672
176	0xbe130c3f	-0.1436014
177	0x3e4d4f8d	0.20049877
178	0xbd34bd22	-0.044125684
179	0xbd0e8396	-0.03479346
180	0x3e0ce633	0.13759689
181	0x3e1c4993	0.15262441
182	0xbe36fe3d	-0.17870422
183	0x3e207e6b	0.15673225
184	0xbca3c1d9	-0.019989895
185	0x3ec9f57d	0.39445105
186	0x3c452517	0.012032769
187	0x3e3ee056	0.18640265
188	0xbe3acb4d	-0.18241616
189	0xbb3eca2f	-0.002911221
190	0xbe73c02d	-0.23803778
191	0x3dccf176	0.100069925
192	0xbbb3a62c	-0.0054824557
193	0xbdbead86	-0.09310441
194	0xbe1e42be	-0.15455148
195	0x3e0632cc	0.13105315
196	0xbd9158ad	-0.07096992
197	0x3e60029c	0.21875995
198	0xbd4ee6ef	-0.050513204
199	0xbd9a1535	-0.07523576
