models/twobitrnnseed444.pth (torch, 43411 bytes, 3 tensors)

input_weights f4 [100, 2]
000000 2d fe f0 3f 49 d3 49 3d 0d 6f 82 3d 73 00 36 bf
       1.8827568 0.049273763 0.063688375 -0.71094435
000010 8e ba 35 3f a0 e7 7a be b5 e6 fc 3e 83 07 de 3e
       0.70987785 -0.2450242 0.49394765 0.43365106
000020 67 46 d9 bd 38 3f f5 bd c4 28 13 3e 6f 22 c4 3e
       -0.10609131 -0.11974949 0.1437102 0.3830752
000030 15 38 f8 be 06 f1 0e 3e 25 59 40 3e 88 e3 9d 3d
       -0.48480287 0.1395913 0.18784006 0.07709414
000040 94 76 df 3e 9b 5d 0b be dc 84 cb 3d 27 bc 95 be
       0.43645155 -0.13609926 0.0993745 -0.2924511
000050 d9 fd 15 3e 9e 10 91 be ad 73 e1 3f 45 39 32 3d
       0.14647616 -0.2833299 1.7613426 0.043511648
000060 75 52 40 be 08 74 22 be 94 b1 aa 3e 30 19 5a 3d
       -0.18781455 -0.15864575 0.33338606 0.053246677
000070 2a fc 23 bd 46 74 1c bf 22 e1 7e 3e 4f 22 2f bd
       -0.040035404 -0.6111492 0.24890569 -0.04275733
000080 dd e4 6e 3d 13 75 d1 3f f8 3a f8 3e e3 6f 21 be
       0.05832373 1.6363853 0.4848249 -0.15765338
000090 ab 07 b4 be 61 18 14 3e 1b db 09 be 30 f3 42 3d
       -0.351621 0.14462425 -0.13462488 0.047595203
0000a0 c6 73 6f 3e e6 fb 9c 3e 39 ee 49 3d 03 2f 78 3e
       0.23384008 0.30660933 0.049299452 0.24236684
0000b0 10 02 f4 be f6 a6 c1 be 35 2e e9 3e 72 ec c2 3d
       -0.47657824 -0.37822694 0.45543066 0.095177546
0000c0 be da ee bb 8b 33 29 bf 10 59 20 bf 14 6c 15 3e
       -0.0072892597 -0.66094273 -0.626359 0.1459201
0000d0 3e 75 16 3e e6 3b 70 3e 8a f7 2d 3e 58 61 2f 3f
       0.14693162 0.2346035 0.1698896 0.6850791
0000e0 97 9f ac bf 5e 0f 3b 3e d4 0f 85 bd b1 38 cc bf
       -1.3486203 0.18267581 -0.064971596 -1.5954801
0000f0 0e f4 ba bf 07 dc d0 3d 98 21 83 bd d1 f2 e3 3f
       -1.460573 0.10198217 -0.06402892 1.7808477
000100 93 21 b7 3f b9 68 b1 bd 74 f1 42 bf 2a d1 0b be
       1.4307121 -0.086625524 -0.7614968 -0.13654009
000110 a0 4a 64 bf 6a 53 e5 bc 99 40 20 bc a2 08 55 bf
       -0.8917637 -0.027993876 -0.009781026 -0.832163
000120 70 4b 4e 3e 26 75 96 bf da bb d5 be 28 a3 21 be
       0.20145965 -1.1754501 -0.41744882 -0.15784895
000130 3a a3 0a be 2b a4 d9 bf 01 0b 04 be 72 02 48 bf
       -0.13538828 -1.7003225 -0.12894823 -0.7812873
000140 46 d6 d7 be ff 89 95 3e 5e ee 01 bf 5b e5 7a bd
       -0.42155665 0.29206845 -0.50754344 -0.061253887
000150 3b 7a 84 bb 4c dc 6b bd 7d 4e e3 3e 53 b0 be 3d
       -0.0040428913 -0.05758314 0.4439582 0.09310975
000160 79 64 0e 3e 60 d4 8d 3d 67 ad a2 3e 53 04 cc 3a
       0.13905515 0.06925273 0.3177292 0.0015565254
000170 28 96 f5 bd cc 43 cd 3e b7 72 18 3f c9 2c ac 3d
       -0.11991531 0.40090787 0.5955004 0.084069796
000180 3d 70 0f 3f a5 2b e1 3d ba cd 30 3f cd ee fa 3c
       0.5603064 0.10994653 0.69063914 0.030631447
000190 07 0d 14 be a9 07 24 bf bf 72 c5 bf c8 09 b0 be
       -0.14458095 -0.6407419 -1.5425643 -0.34382463
0001a0 70 cb 39 3e a5 c1 ae 3e 05 05 50 bd 7d 77 0f 3f
       0.18144011 0.34132114 -0.050786037 0.560417
0001b0 5d 84 9e bd a0 d3 07 3e 9b 15 18 be 84 fa 0e 3f
       -0.0774009 0.13264322 -0.14851992 0.55851007
0001c0 6d 7b af be 12 81 c2 bd d2 70 80 be 39 2e 09 bf
       -0.34273854 -0.094972745 -0.25086075 -0.53586155
0001d0 e4 17 e1 3d f0 e7 55 3f b0 e7 a6 3e 28 27 88 3e
       0.10990885 0.83557034 0.3259864 0.26592374
0001e0 a2 20 06 bf 0f 9a 9e 3d 2c 37 f0 bd d5 85 89 3f
       -0.52393544 0.07744228 -0.11729273 1.0743967
0001f0 60 90 58 bd 26 12 64 bf 3d 5c 07 bc e4 20 18 bf
       -0.05287206 -0.8909019 -0.008261737 -0.5942519
000200 5d 39 8f bb 88 01 06 3f ff 2b fa 3d f7 96 78 3e
       -0.004370852 0.52346087 0.12215423 0.24276339
000210 8d 48 1b 3e 65 75 59 be eb 84 14 bf f3 34 05 be
       0.15164395 -0.21236189 -0.58015317 -0.1300848
000220 3d 65 24 be 8a 94 1a 3e cf 23 f9 be 1f 26 df 3c
       -0.16054244 0.15095726 -0.48660132 0.027239857
000230 bd 59 8b bd 04 a4 f0 3f a8 e5 86 be 81 b8 86 3e
       -0.068042256 1.8800054 -0.2634709 0.2631264
000240 19 45 ef bd b9 75 55 be 75 e7 b8 be 44 20 de 3e
       -0.11683101 -0.20845689 -0.36114088 0.43383992
000250 3e 77 5c bf 0f eb d0 bd f1 47 be bc ab 07 05 bf
       -0.8611945 -0.10201084 -0.023227664 -0.51964825
000260 0d 8d f5 3c 21 07 19 be e7 12 e6 3d 79 82 d1 3e
       0.029974485 -0.14944126 0.11234074 0.40919855
000270 6e 32 cd 3e c4 b9 24 3d aa 2d f0 3c f4 cc 47 3e
       0.40077537 0.040216222 0.02931865 0.19511777
000280 b1 ba d0 bb fb 6d b4 3d 66 78 5c be f6 7a ee 3e
       -0.0063699116 0.088100396 -0.21530303 0.46578187
000290 7b b2 30 be c4 9b ec bc b9 56 a2 3d 45 d4 fd 3e
       -0.17255585 -0.028882869 0.07926697 0.4957601
0002a0 b9 b5 e1 3f 73 35 e9 bc 36 6a dd 3c dc 87 86 3e
       1.7633582 -0.02846787 0.027028184 0.26275527
0002b0 d4 b3 a9 3e 0c ee aa 3d 9a 8b 26 3e 1d ff 21 bf
       0.3314501 0.08346185 0.16264191 -0.63279897
0002c0 02 37 af 3d 5a 8d 8b 3d 93 c4 87 bc 35 79 38 3f
       0.08555414 0.0681407 -0.016573226 0.7205995
0002d0 f6 6b 19 be b9 fc cf 3f 63 e9 39 bf 1f e4 ee 3d
       -0.1498259 1.6249 -0.72621745 0.116646044
0002e0 84 05 33 3f 82 84 e6 3d d4 c6 9d 3d 64 b7 93 3e
       0.6993029 0.112557426 0.07703939 0.28850853
0002f0 63 65 b5 bd 11 9f 3c bf 71 2e bd be 71 11 32 3b
       -0.088572286 -0.73680216 -0.36949494 0.002717104
000300 e7 43 04 3f 28 82 0b 3d 2c 1d 11 bf 8e da 3c 3e
       0.5166611 0.034059674 -0.5668514 0.18442747
000310 a8 b6 2a 3f a1 6e 71 3e 47 b1 0d 3f 8f 2c 06 be
       0.6668496 0.23577358 0.5534863 -0.13102935

recurrent_weights f4 [100, 100]
000000 0e f7 3f 3d df 99 37 3d 4a 7c 60 3e f6 e3 85 bc
       0.04686647 0.044824477 0.21922413 -0.016344052
000010 3c ed 81 3d 4e 75 4f 3d d2 2c dc bd 42 0a a8 bd
       0.06344077 0.05064898 -0.10750736 -0.082050815
000020 f8 cb 3c be 8e f4 90 bd 32 b8 e3 3d cd c9 58 3e
       -0.18437183 -0.07077895 0.11119117 0.21170731
000030 fb b1 db 3b 4b 9f 7d bd 46 74 41 be 34 ab 00 bd
       0.0067045665 -0.06191949 -0.18892011 -0.031413272
000040 fe 46 94 3d d1 90 b0 3c cd ff 97 bd 49 a2 c7 bd
       0.07240103 0.021553429 -0.07421837 -0.0974775
000050 a7 2b d8 3d 56 49 81 bd ca 50 c8 bc e7 b3 1f be
       0.10555201 -0.06312816 -0.024452586 -0.15595971
000060 38 c5 38 bb 18 e0 2b be e2 26 ad 3c b3 0f c5 3d
       -0.0028193723 -0.16784704 0.021136705 0.09622135
000070 c4 46 f1 bd 71 d2 ac 3d 9f be 33 be 57 b6 c7 bd
       -0.117810756 0.08438576 -0.17553185 -0.097515754
000080 09 bb 39 3e 9b 11 cb 3c 0d ec 4e be 4c fe 89 bd
       0.18137754 0.024788668 -0.20207234 -0.067379564
000090 8c 1d 4e 3e 32 01 1d 3c 90 db d5 bd 73 07 0b be
       0.20128459 0.0095828045 -0.10442269 -0.1357706
0000a0 59 32 50 3d 82 df 89 bd 4c 90 80 bd 5b a2 aa 3d
       0.050829265 -0.06732084 -0.062775224 0.08331748
0000b0 08 ae 22 3e 3b 67 6a bc f9 38 9d bd 5e 84 27 be
       0.158867 -0.014306839 -0.07676882 -0.16359088
0000c0 2e 2c 78 3d 6c 29 12 3d ec 53 10 3e cc 01 01 bd
       0.060589008 0.035684034 0.14094514 -0.031495854
0000d0 11 8b 7c be 6b ff 8e 3d 3d 7a c6 3d 78 c5 2f 3e
       -0.24662425 0.06982311 0.09691284 0.17165172
0000e0 35 bf 05 bd 39 58 93 be f9 88 ac 3d 87 c4 f8 3c
       -0.032653052 -0.28778246 0.08424563 0.030367149
0000f0 cd a3 45 be 76 f1 70 3d e0 e1 51 3d 3e 22 c1 3c
       -0.19300766 0.058824025 0.0512408 0.023575898
000100 d5 5e f4 bd c5 30 a9 bd f8 28 04 3d 12 12 ad bd
       -0.1193215 -0.08261255 0.032265633 -0.08450712
000110 8c 0a ad 3a 05 84 3e be 52 11 97 3c c7 60 b3 3d
       0.0013201996 -0.18605049 0.018440876 0.08758693
000120 d8 eb 3c 3d c7 f7 0a be 4f ce f4 bd 0c 98 ae bd
       0.046123356 -0.13571082 -0.11953413 -0.085250944
000130 86 16 7e 3d d1 2d d9 3c eb 94 30 3c 42 5c 0b 3e
       0.0620332 0.026511105 0.010777692 0.13609412
000140 32 04 96 bd 7c af 88 3c 7c 4e 76 3d 9b c3 e2 ba
       -0.07325019 0.01668524 0.060133442 -0.0017300727
000150 64 ef df 3d 6f 8c 96 bc 03 d5 9e bd f4 e8 dc 3d
       0.10934332 -0.01837751 -0.077554725 0.1078662
000160 ea 46 6a 3a 4a c5 93 bd 54 de f1 3c c8 89 91 bc
       0.00089369586 -0.07215364 0.02952496 -0.017765895
000170 bf 58 1b 3e 01 49 6f 3c dc f7 c4 3c 9f 38 2d be
       0.15170573 0.014604808 0.02404397 -0.1691613
000180 46 fa 25 3c 34 95 7f bd 7a c2 27 3d 41 ce 47 bc
       0.010130471 -0.06239815 0.04095695 -0.012195171
000190 65 f4 36 bb 0e 3d 9c bd 8d c8 ae bd 6a b1 11 bd
       -0.0027916667 -0.07628833 -0.08534346 -0.035569586
0001a0 cc e0 fa bb 98 14 08 3e c3 1d 11 3c fc c9 ae 3c
       -0.0076561924 0.13289106 0.008857193 0.021336548
0001b0 52 19 e0 3c bc 1d 37 bd d0 1b ed 3c c0 41 a5 3d
       0.027355824 -0.04470609 0.028943926 0.080691814
0001c0 5e 6b 0b 3e bb 6b 07 3d c8 f5 4a 3d 02 04 66 3d
       0.13615176 0.033061724 0.0495508 0.056156166
0001d0 45 f5 f5 3c 21 e9 b9 bc 40 ab 49 bd d0 58 c5 bd
       0.03002418 -0.022694172 -0.049235582 -0.0963608
0001e0 83 02 10 bd 0a b0 61 bc 68 93 43 3c 76 42 0c be
       -0.035158645 -0.013774881 0.011937 -0.13697228
0001f0 42 a5 b3 bd 7b 7d fb bd 17 ff 9a 3c 15 de 9a bd
       -0.08771755 -0.12279793 0.018920464 -0.0756189
000200 c9 b5 5e be e3 bf 90 3c 30 9f d6 bc 38 ed 07 be
       -0.21749033 0.017669624 -0.026198953 -0.13274086
000210 e8 2f 68 bc 00 0c 20 3d 51 3d ab 3d 1a 5c be 3c
       -0.014171578 0.039073944 0.083613046 0.023237277
000220 9d e2 3d bd 4b de 2b bd b1 40 65 bc 42 36 83 bd
       -0.046358693 -0.041960042 -0.013992474 -0.06406833
000230 e6 95 a9 bd e9 82 28 3d 8f d7 ed bd 07 f6 53 be
       -0.08280544 0.04114047 -0.1161338 -0.2069932
000240 db 2e 26 3d 5b 58 e6 3d 44 95 50 bc 43 5d 25 be
       0.04057203 0.11247321 -0.0127309 -0.16148858
000250 d5 e2 34 3d 0f fe a9 3d fe 2e 0f 3e 7e c9 84 3d
       0.044161636 0.08300411 0.1398277 0.06483744
000260 a7 e9 33 bd 75 28 26 bb b1 aa bc 3d 9b ef 35 bd
       -0.043924 -0.0025353704 0.09212244 -0.04441796
000270 c6 ad 8d 3c 77 55 37 3d b3 3a de 3d 12 5a bc 3d
       0.017294776 0.04475924 0.1085104 0.09196867
000280 5a da 53 3d 7f 51 c3 3d 3d c5 a8 bc 77 1f 84 3c
       0.05172191 0.095370285 -0.020601863 0.016128285
000290 69 74 59 bd e0 39 46 bc dc 6e 0e bd 19 62 c5 bb
       -0.053089533 -0.012098759 -0.034773692 -0.006023657
0002a0 76 95 88 bd 9f c3 8f bd b9 7c a5 3d 57 1b a6 bd
       -0.066691324 -0.07019734 0.080804296 -0.081106834
0002b0 02 63 5a bd ca 75 1e bc da 0f 01 3e 09 7a e3 bc
       -0.053317077 -0.009671638 0.12603703 -0.027768152
0002c0 0f cb 06 be b4 0d 6d bd 05 97 7b 3c 2c 8d 30 3e
       -0.13163398 -0.057874396 0.01535583 0.17241353
0002d0 e9 b6 ee 3d 1c 34 d9 bc d6 49 43 bb 42 8c 93 bd
       0.11655981 -0.026514105 -0.0029798648 -0.072044864
0002e0 5f d2 45 be 84 4e 73 bd a0 d7 22 3e 35 c2 1b 3e
       -0.19318531 -0.05940105 0.15902567 0.15210803
0002f0 3e 74 14 be 4f 00 b8 3c 17 af 7e bd 2f 86 39 3d
       -0.14497468 0.022461085 -0.062178697 0.045293983
000300 e9 14 bb bb 43 34 00 3e 34 e4 8d bc c4 37 52 3c
       -0.00570928 0.12519936 -0.01732073 0.012830678
000310 b1 b4 c0 3c a5 83 94 3d ca e0 c9 ba 9e ba d5 3d
       0.02352366 0.07251672 -0.0015402075 0.10435985
000320 09 7b 56 3e b1 68 d1 3c 3b 9f 2a be f9 e9 5e 3e
       0.20945372 0.025562616 -0.16662304 0.21768941
000330 26 02 08 bd cb 0e a1 bd a7 27 a3 bc 5c d1 1e 3e
       -0.033205174 -0.0786415 -0.019916369 0.15509552
000340 56 47 07 3e b9 f7 1a 3d 5c 95 a5 bd eb 7a 8f ba
       0.13210806 0.037833903 -0.08085129 -0.0010946667
000350 17 1c 4c 3c 4c 01 b7 bc a7 1b 83 bd 34 7c 0e be
       0.012457869 -0.022339486 -0.06401759 -0.13914567
000360 72 4b 7c 3d 0a 35 3b 3e b1 aa 98 3d 3e 47 a1 bc
       0.061595388 0.18281952 0.07454432 -0.019687291
000370 a5 cb 6a bc fb 46 16 3a 02 b7 0c bc 2f 36 7a 3e
       -0.014330779 0.0005732623 -0.008588554 0.24434732
000380 b4 81 e9 3c d6 d0 70 3e 42 ef db 3c 12 8f 2c bd
       0.02850423 0.23517165 0.026847485 -0.04212863
000390 a8 af 0b be 9b 7c 6f bd c9 9b bd 3b cb e0 2c be
       -0.13641226 -0.058468442 0.0057863933 -0.16882627
0003a0 64 e2 d2 3c 19 78 3c be 06 1b 08 3d 0e b7 c5 bd
       0.025742717 -0.18405189 0.033228897 -0.096540555
0003b0 90 3d 50 3d 48 93 ca bc 94 94 de bd e0 6e e5 3d
       0.05083996 -0.024728432 -0.10868183 0.11202788
0003c0 b9 58 d2 bd 34 21 d5 bd 89 b2 8f 3d 60 80 99 3c
       -0.10270829 -0.104067236 0.07016475 0.018737972
0003d0 f3 a5 fc 3c 63 de a1 bd 49 a8 31 3d 65 04 44 bd
       0.03084085 -0.07903745 0.04337338 -0.047855753
0003e0 e5 9e 7e bd 01 3a 42 3d ca 6c 1d 3e 84 1c 1f be
       -0.062163252 0.047418598 0.15373531 -0.15538222
0003f0 7b 3d 34 3c 61 e7 0b bc 1b 48 d9 3d 52 51 73 bc
       0.011000986 -0.008539052 0.10609456 -0.014850931

output_weights f4 [2, 100]
000000 ce 39 cc 3e 98 b4 83 3c 78 93 c7 3d 1c ed f8 bd
       0.3988785 0.016077325 0.09744924 -0.121546
000010 26 13 b3 3c e0 82 11 be 9c 9b de bd d6 0a db 3d
       0.021859717 -0.14210081 -0.10869524 0.10695426
000020 8b 73 8a 3d ae 35 2d 3c 11 44 73 3e 3d 7d 0b 3f
       0.06760319 0.01057188 0.23756434 0.54487973
000030 8c dd f7 bd b0 27 c1 3d d4 82 13 3e 6b 40 50 3e
       -0.121028036 0.09431398 0.14405376 0.20337074
000040 88 de 1e 3d c4 56 46 3e 74 91 92 3d 6c cc 01 be
       0.03878644 0.19369036 0.07156649 -0.12675637
000050 61 6a 31 bd 82 ea 37 be a5 74 18 be a5 2c 3f 3d
       -0.04331434 -0.17960551 -0.14888246 0.046673436
000060 53 d1 5a bd 80 bb 70 3d b9 0a aa 3e 15 86 da bd
       -0.053422283 0.058772564 0.33211306 -0.10670105
000070 14 08 c0 be 69 88 01 3e 29 1d 57 be 57 a2 fa 3d
       -0.37506163 0.12649693 -0.21007217 0.12237995
000080 cb 19 7e 3e c1 ee cb bc af ea d0 bd 77 7a 36 3c
       0.24814527 -0.02489412 -0.10201012 0.011137596
000090 04 bd c0 3d d2 47 78 3d 1a 1b 21 be 0d 0e 08 3e
       0.09411052 0.06061537 -0.15732995 0.1328661
0000a0 cc 78 a2 3d 8a 3a 5b be 9d 90 5a 3e 0f 10 d6 3c
       0.079331964 -0.2140905 0.21344228 0.026130704
0000b0 ba d9 8b 3d 50 15 0b bc 4f 27 82 3e 3d f4 f3 3c
       0.068286374 -0.008488968 0.25420615 0.029779548
0000c0 33 c3 ab bd 1a 7d 71 bc 9c a6 de bd cb 57 ec be
       -0.08386841 -0.014739299 -0.10871622 -0.4616073
0000d0 4e 8e 39 3e 09 09 96 bd 98 71 01 be 09 25 15 be
       0.18120691 -0.07325942 -0.12640989 -0.14564909
0000e0 d3 27 03 3d ed 26 a3 bd 4b 0b 50 3e 55 99 f6 bc
       0.0320204 -0.07966409 0.20316808 -0.030102411
0000f0 40 d8 69 3e 6a fc 39 3c b4 16 5e bd 75 aa e2 3d
       0.22836399 0.011351684 -0.05422087 0.11067668
000100 f2 4e a1 bd 97 f5 05 bc b4 e9 1c be 1e c0 8f 3e
       -0.07876386 -0.008176229 -0.15323526 0.2807626
000110 bc f5 b0 bd 60 5c 12 bd b1 5e 38 3c 3b fb 6b bd
       -0.0864062 -0.035732627 0.011253045 -0.05761264
000120 12 9d 03 be 42 44 b5 bd f0 90 16 3d 67 e9 34 bc
       -0.12852886 -0.0885091 0.036759317 -0.011041976
000130 95 19 1f 3d 2c e2 77 3d 87 92 ec 3c 42 2e 71 3d
       0.038842756 0.06051843 0.028878463 0.058882006
000140 77 ca 2e 3e 0d 77 d2 3c 64 61 3c be 29 b8 3a 3e
       0.17069422 0.025691533 -0.18396527 0.18234314
000150 21 65 0f 3f c1 3f d1 3d f7 b8 d8 bd a5 b6 b2 3d
       0.56013685 0.10217238 -0.10582154 0.08726243
000160 0a d1 53 3c d6 a0 91 3d e1 4f 38 be b1 4c 44 bd
       0.012928257 0.07110755 -0.17999221 -0.0479247
000170 4d b0 4c bd 61 29 0e 3b 3f dc 81 bd aa b6 74 3d
       -0.04997282 0.0021692144 -0.06340837 0.059744515
000180 06 fa 59 be 9f 57 1f be 9e ca 15 3e 52 a3 1f 3d
       -0.21286783 -0.15560769 0.14628074 0.038974114
000190 82 99 40 bd e2 11 6c 3d d4 a7 a6 bd f8 be 2e 3e
       -0.047021396 0.057634242 -0.081374794 0.17065036
0001a0 08 54 36 be 34 c4 db bd 7c 34 7c 3e 6d b5 86 3c
       -0.17805493 -0.10730782 0.24629396 0.016443932
0001b0 2f eb ac 3c d1 4b 97 bd 5b d7 4f bd 9e fc 2b bd
       0.021108238 -0.07387508 -0.05074249 -0.04198896
0001c0 b5 0c df bb 94 72 ad bd 5e 09 3c bd 82 97 76 3d
       -0.0068069347 -0.0846912 -0.04590737 0.060203083
0001d0 69 03 17 3f 6a ba ac bd 37 ed 40 bd 0c da fe bc
       0.5898958 -0.08433993 -0.047101226 -0.031109832
0001e0 57 09 4e 3d 4c b5 a4 bc ce 69 54 be 05 97 15 3e
       0.050301876 -0.02010598 -0.20743486 0.1460839
0001f0 39 76 bd 3d 76 28 8d 3d 83 71 8a 3d 0a 38 98 bd
       0.09251065 0.06892483 0.06759932 -0.074325636
000200 78 8b 2b 3d a3 3d a5 be 28 24 53 bd 8f 02 e4 3e
       0.041881055 -0.32273588 -0.051548153 0.44533202
000210 5f 69 ab bd a4 b7 13 3d bc 0e 95 bd bb 3e 80 3d
       -0.08369707 0.036063805 -0.07278201 0.06261965
000220 4d 38 7f be cc 1c 4a bd eb f8 e8 be ca cf ad 3d
       -0.24923821 -0.04934387 -0.4550241 0.08486898
000230 ba 95 94 3d 0d 57 f9 3c 89 b2 60 be c0 07 fd 3d
       0.072551206 0.030437017 -0.21943106 0.12354994
000240 52 47 00 bf 28 8a 6d 3d 09 ae 5a 3d 01 92 ff bd
       -0.50108826 0.057993084 0.05338863 -0.1247902
000250 d8 59 20 bd d4 4a 16 3d 3f 27 54 3d 8d 22 e4 bd
       -0.03914818 0.036692455 0.05179524 -0.111394025
000260 f7 e5 3c bd 52 08 91 bd b6 46 54 bd 13 4b bf 3c
       -0.04611775 -0.07081665 -0.051825248 0.023351228
000270 e6 f2 99 bd ab 0f 81 bd 3c 38 b0 bc dc f2 12 be
       -0.07517032 -0.063018166 -0.02151119 -0.14350456
000280 3a 4a 56 3d 30 03 60 3e 17 5c 11 3d e1 55 14 be
       0.05231688 0.21876216 0.035488214 -0.14485885
000290 4a 59 61 bd 60 98 19 3d e0 ad c5 3c c8 f1 d8 bd
       -0.055016793 0.03749883 0.024130762 -0.10592991
0002a0 89 d6 43 3e b7 f5 68 be f1 17 c5 3e 9d 76 cf bc
       0.19124807 -0.22749983 0.38494828 -0.025325114
0002b0 7d 7d 8a 3c ed 51 9b 3d 1a bf c1 bd 51 d0 a6 3d
       0.01690554 0.075839855 -0.09460278 0.08145202
0002c0 8a c1 21 be c0 f7 a3 3e f2 34 a4 be 78 34 00 be
       -0.15796486 0.32024956 -0.32071644 -0.12520015
0002d0 3f 4b 3f 3e 46 6b 85 bd 2b 47 dc bc f5 49 1d 3c
       0.18681048 -0.065146014 -0.026889404 0.009600152
0002e0 56 07 d9 bb 8b d4 d9 bd 91 29 9c bd 62 cf 6f be
       -0.006623189 -0.106362425 -0.07625116 -0.23418954
0002f0 5f 60 dd bd a8 48 7c 3e f6 61 a1 3e 1c a8 a3 be
       -0.10809397 0.24637091 0.3152005 -0.31964195
000300 30 76 b2 3c 86 1c e1 bd c2 fb 78 bd 96 6a 4d 3d
       0.021784872 -0.109917685 -0.06078697 0.050150476
000310 98 fe 91 bd be d1 11 be 18 f7 31 bd 87 3b a8 bd
       -0.07128638 -0.14240167 -0.043448538 -0.08214479
