models/twobitallrandom.pth (torch, 43404 bytes, 3 tensors)

input_weights f4 [100, 2]
00000000: 3f55 123e 030f 8b3d 0705 8d3d 55ae ddbd
00000010: 26a9 873d d3ce c43d 3d90 843c 6821 4b3e
00000020: 0ea4 923d 8294 1c3d 48fa 8d3d 76ca 2c3e
00000030: 2dc7 523d 38d2 4b3d b349 14be 92cb 85bd
00000040: 695f 153d d3eb 2fbe 4b0f e2bc 3a4d a33d
00000050: 0327 93bd 9552 693e 2593 233e 3f13 a23c
00000060: 154b dc3d 18fa 15bd 1bbe dabd 60ac 7d3b
00000070: a7a2 b7bd 488f 093b 17ce 60bd b3a8 06be
00000080: b242 4e3d 00e5 593b 0bc5 e23d e140 cabc
00000090: cfca 59bc 5bce f23d 07a1 18be 10bd 593e
000000a0: 551e 023d 8f3b 583d 3be0 0fbe df57 eb3c
000000b0: bdd7 d13d c54c 4f3d 8952 293c 8b9a ef3d
000000c0: f830 55bb 99d5 353d 7159 823d cf7b d83d
000000d0: 3822 f33a f3de e0bd 0577 e23d d858 cfbc
000000e0: 05ad 35be aa2b 863e b337 93bc e384 0abe
000000f0: eb11 7e3b ab7c 013d 1247 6c3c 97ee f4bc
00000100: a5ce ecbc 0d8f 95bc c5c6 d1bd b3a1 81bd
00000110: 786f 623d 102f 6cbe ef95 5b3d e59a eabc
00000120: be63 a2bd cb2a 15be 6001 a13d b011 973e
00000130: 0159 9f3c 6e6d 1abe bd19 83bc ada0 4d3c
00000140: 9bc5 203e af46 23bd 3bb9 4f3c 2a29 793e
00000150: 234f 85bd eeb8 a43c 7dbb 6ebc 1b57 b9bd
00000160: 3a44 d9bd 279f 083e e5ef f6bc abae 31bc
00000170: 6e8e c3bd 1fc9 a4bd 1e03 0a3e 9391 18be
00000180: 79b4 9abc de91 4cbd f5b3 7b3d d3a3 433e
00000190: 7c50 2a3d 4728 c43d 7024 593d e904 2dbe
000001a0: 118b ba3d 8b7b ddbd 4013 68bd 0e3f 87bc
000001b0: f751 533d 32d1 0f3e 5487 cc3d a064 c5bc
000001c0: ec48 1cbd d934 cc3d 4ac9 80bd e039 ec3b
000001d0: 16b2 2d3e 3fa5 163e 5de8 57bd c292 e4bc
000001e0: 6465 b53c ed73 823d c120 49bd 3a04 353d
000001f0: 222d 5a3e e099 a8bd 3efb b4bd 4847 963d
00000200: b724 593d bd67 7e3d 00ab e8bd bcad a6bc
00000210: 8eb9 99bd db9b b5bd a837 43be d8ab ab3d
00000220: 7664 a23d f7bc a03d 8f67 43be 6c2d a0bd
00000230: 37e0 00be e03e b23d be33 2b3d 3d4e d03c
00000240: c5f8 27bd 50bf ef3d 7384 bc3d d33d 5e3d
00000250: fbff 7b3d be84 31bc 95d0 c93d 8049 e1bd
00000260: 0f51 df3b 4715 8bbe 32c7 0e3c 4995 0ebe
00000270: c459 a0bc 620e a63b e03c 3ebe dfc0 28be
00000280: c712 233d 1367 afbd d762 383e 1b21 f03d
00000290: 933c 9e3d a535 503e 75af 1fbd 8d20 883d
000002a0: 7925 1b3b 40e5 87bd d760 133e 7023 c7bd
000002b0: 5528 cf3d b3c5 963d 608d 053e d331 25be
000002c0: 7fd8 233e 60ed 783d e68d bfbe 7234 27be
000002d0: e787 f13b 7e9c 90bc e611 84bd 4bc2 a33d
000002e0: 35e9 f93d 60c5 333e 6610 3abd ca41 493d
000002f0: aa17 d23d b31f 7bbc e050 c53c 6678 1c3d
00000300: 5835 91bc 188d 293e 7319 7ebd c284 7c3d
00000310: bf78 87bd eeca a43c 5b5e 623d 6c00 073d
0.14290331 0.06789973 0.068857245 -0.10824267 0.066240594 0.09609761 0.01618206 0.19836962
0.07160197 0.038227566 0.06932503 0.16874108 0.05145948 0.049761027 -0.14481239 -0.065329686
0.036467943 -0.17179804 -0.027595183 0.07973714 -0.07185175 0.22785409 0.159741 0.019784568
0.10756508 -0.03661546 -0.10680791 0.003870748 -0.0896657 0.0020989943 -0.054884043 -0.13150291
0.050356574 0.0033248067 0.11072739 -0.02468914 -0.013292982 0.118557654 -0.14905177 0.21263528
0.031767208 0.052791175 -0.14050381 0.028728424 0.10246227 0.050610323 0.010334619 0.116993986
-0.0032530408 0.044393156 0.06364716 0.105704896 0.0018549627 -0.10980024 0.110578574 -0.025310919
-0.17741783 0.26205188 -0.017970895 -0.13527255 0.0038768004 0.031613033 0.014421241 -0.029898925
-0.02890713 -0.018256688 -0.102429904 -0.0632967 0.055282086 -0.23064828 0.053609785 -0.028638313
-0.079291806 -0.14567105 0.078615904 0.29505682 0.01945162 -0.15080807 -0.016003484 0.012550515
0.1570038 -0.03986233 0.01267844 0.24332109 -0.06509235 0.020107713 -0.014571068 -0.09049817
-0.10608716 0.13341962 -0.030143688 -0.010844867 -0.09548651 -0.08046173 0.13477752 -0.14899282
-0.018884884 -0.049943797 0.061450917 0.19105463 0.041580662 0.09577995 0.053013265 -0.16896404
0.09108556 -0.108145796 -0.056658983 -0.016509559 0.05159184 0.14044645 0.09986749 -0.024095833
-0.03815548 0.099710174 -0.06288393 0.0072090477 0.16962466 0.14711474 -0.052711833 -0.02790201
0.022143073 0.06369767 -0.049103502 0.044193484 0.2130628 -0.08232474 -0.08836983 0.073378146
0.05301353 0.06211065 -0.11360741 -0.020346515 -0.07506095 -0.08867618 -0.190642 0.08382386
0.07929318 0.07848542 -0.19082473 -0.078211635 -0.12585531 0.08703399 0.041797392 0.025427932
-0.04100873 0.11706412 0.0920495 0.05425818 0.06152342 -0.010834871 0.09854237 -0.11000347
0.006815083 -0.2716467 0.008714484 -0.13924135 -0.019574054 0.0050676325 -0.1857791 -0.16479824
0.03981283 -0.08564582 0.18006454 0.11725064 0.07726397 0.20332964 -0.03898569 0.066468336
0.0023673458 -0.06635523 0.1439241 -0.09723556 0.101151146 0.07361927 0.13042212 -0.16132288
0.16000555 0.060773253 -0.37412947 -0.163286 0.007370937 -0.017652746 -0.06448726 0.07996043
0.12202684 0.17555761 -0.045425795 0.049135007 0.1025842 -0.015327382 0.024086416 0.03820076
-0.017725632 0.16557729 -0.06203599 0.061650045 -0.06614827 0.020116296 0.055265766 0.032959387

recurrent_weights f4 [100, 100]
00000000: 5749 943d 983e 1a3d 1e2b afbc 2317 bc3a
00000010: a71c 813d 8db2 54bc cb60 ec3b 5fd1 403e
00000020: 1368 f93d d268 c3bd 8849 d23a c20a cebd
00000030: f6b3 993d 3b1b 4c3e 722f 55bd 7591 76be
00000040: 5aa4 2cbe 12aa b4bd 152e afbd ab85 debd
00000050: 07e9 6f3c 981c a2bd 2c87 af3c cb80 953c
00000060: b100 1ebe 7a61 5a3d 9339 f13c c681 9c3d
00000070: 2867 b9bd a518 07be 79d8 21bd 13ae 233d
00000080: 125e 50bd 7009 7ebd e417 0e3d fb83 cb3d
00000090: 2703 943d 75ad edbd d977 8d3d 8a98 b4bc
000000a0: b8d7 c43d 27dc 00bd c34a 6b3c 07d9 8d3c
000000b0: bc19 9bbd e2a6 8ebc fa30 b8bd 7a2a 8bbd
000000c0: f34b a8bd b3d2 013e 81e5 353d 34ca 0cbd
000000d0: 8500 96bd 375b 833d 5866 4dbc 4358 2bbd
000000e0: 6913 c93d fda6 97bc 1cec 0bbc e2bd 63bd
000000f0: b206 6b3d 8d75 5d3e 6eab b33d a2e5 b9bb
00000100: 5d59 c43d 5e18 2c3e 48fd 033e 5133 343d
00000110: 5368 1cbe fcb2 b5bd 4002 f13d f353 bb3c
00000120: 87d2 963d 2d1c adbd eae7 783d ea73 e1bc
00000130: f3e8 ccbd dda9 fb3d db84 d8bc bb34 9cbd
00000140: 4218 c53d ab08 00be 8b7b 17be 175d a43d
00000150: 23f3 a13d 00d7 2ebe 7fea 0abe c1af b7ba
00000160: b81c 46be c289 723e 6295 2cbc 31d0 953d
00000170: c89b e8bd 5bed 0bbe ca6c 323d ffae 0abd
00000180: 537c f63d 3785 29bd f31e 143c 8f7c cfbd
00000190: 6d56 a9bc c294 273e 46ec be3d 53d4 ecbc
000001a0: 8188 8339 84f3 b7bd 4a03 c7bd d564 8abd
000001b0: a322 11be f8fc adbd ac36 2dbc f6cd 063e
000001c0: 74fb 8f3d 1211 d5bc 6965 313e 34e4 c03d
000001d0: b62f 9abd 87bf aabc 9820 debd f0ab 593e
000001e0: 8df7 553d 2bdc 3f3c 7774 be3b aec5 153e
000001f0: 5b4b 12be 972e 51bd aece c4bd 270b e7bd
00000200: 47c6 ab3d 9a2a fabd 987c 4f3d 74d9 1c3d
00000210: 63cb 95bd f8c9 b0bd 37c5 7cbd 5ad9 29bd
00000220: 2356 753d 733c 5e3c 37c1 1cbd 6dc0 b0bd
00000230: 7af0 4e3e db35 c5bc 7ff6 a3bc 6380 9cbd
00000240: f7a1 d1bd 585a 213e f12a 86bd ac32 a5bd
00000250: 8b6d cb3c c81f 193e 6b7b c63b 0b00 6dbd
00000260: 1917 073e 43af 4a3d 5d63 943d db2d cabd
00000270: ff49 95bd 6bed 88bd 2f6d d83c c0dc 753a
00000280: 9b07 9e3c 02de 06be d5d6 3a3c 1634 083d
00000290: 24d8 9a3d f305 ff3d 4d57 63bb 1b18 52bd
000002a0: 0d37 fbbb 3bbc 94bd 0087 573c c918 97bd
000002b0: 7bda 84bd 845a ccbc 26fa 3db9 3b32 a9bd
000002c0: ed0d 55be 69bb 033d e244 6b3e 2dfa e3bc
000002d0: 0a7c b93d dd6e 5a3c b77a 9c3d 74cc c43b
000002e0: f353 19bd 7a54 553c 6b0f b4bd 65d0 de3d
000002f0: b3ee 02be 999d b53c 7f34 d13c c79e 02bd
00000300: 74b6 953d 554e b5bc 95e4 d43d 1f26 c7bc
00000310: bdc7 eabd edc9 8abd 406a 523c 790a 8bbd
00000320: 7049 72bc c3cd 1a3e bdaa 593e 0a6c 67bd
00000330: 12d7 743d 905b e43c b73c 58be b470 36be
00000340: 89c4 cbb9 15f2 dcbd f5a3 1a3e 18be 8cbd
00000350: 2c23 87bd 12a8 053e 4481 9a3d 4d8e 663c
00000360: 2ff7 e4bc 4889 ea3d 0b06 4e3d bb85 b13a
00000370: d260 89bc 96ae abbc 7df5 a3bc 13ba 2abd
00000380: d062 283d 95a4 66bc 3ef5 2f3e 8b7e 113d
00000390: de89 aa3d 372e b13d c32d dabd 19df 1d3e
000003a0: 23d1 b4bd c7ca 873d 2960 88bd 0471 c6bd
000003b0: 3bd2 953c 0ffd 213e 4200 8dbd 0395 403d
000003c0: 734b 2a3d 1f88 eb3c 4859 0abd 7de0 053e
000003d0: 954b 5e3d 4f87 9b3d d299 55bd 8300 cc3d
000003e0: 8ad6 6e3d 4b65 8f3c 84bc 00bd 9120 423e
000003f0: fd26 e73c bfd8 193d 9ae1 6ebd 0093 84bd
0.07240551 0.03765735 -0.021382865 0.0014350157 0.06304293 -0.012982023 0.007213687 0.18829869
0.12178054 -0.09541477 0.0016043643 -0.10060646 0.07505028 0.19932263 -0.0520472 -0.24078925
-0.1685957 -0.08821501 -0.08553711 -0.10865339 0.01464296 -0.0791561 0.02142676 0.01824989
-0.15429951 0.053315617 0.029446399 0.0764194 -0.090528786 -0.13192995 -0.039513085 0.039960932
-0.050870962 -0.06202072 0.034690753 0.09937283 0.07227164 -0.1160535 0.06907625 -0.022045393
0.096114576 -0.031459954 0.014361086 0.0173154 -0.07573268 -0.01741356 -0.089937165 -0.06795211
-0.08217611 0.12678032 0.044408325 -0.034372523 -0.07324318 0.06413882 -0.012536608 -0.04183222
0.09818155 -0.018512243 -0.00854018 -0.05560101 0.057379432 0.21626873 0.08772932 -0.0056731263
0.09587357 0.1680617 0.12889588 0.04399425 -0.15274172 -0.08872029 0.11768007 0.022867179
0.07364374 -0.0845264 0.060768045 -0.027521092 -0.10005369 0.12288258 -0.026430538 -0.07627245
0.096237674 -0.12503307 -0.14793222 0.08025568 0.07907703 -0.17074203 -0.13566016 -0.0014014171
-0.19346893 0.23685363 -0.0105336625 0.073151 -0.11357838 -0.13664763 0.04356078 -0.033858296
0.12035432 -0.04138681 0.009040582 -0.101311795 -0.020671094 0.1636534 0.09322409 -0.028909838
0.0002508797 -0.08981994 -0.09717424 -0.067575134 -0.14173369 -0.084955156 -0.010572117 0.13164505
0.07030383 -0.026009116 0.17323841 0.09418526 -0.075286314 -0.02084328 -0.108460605 0.21256995
0.052238036 0.011710207 0.0058122235 0.1462619 -0.14286558 -0.051069822 -0.096097335 -0.11281424
0.08387428 -0.12215157 0.05065593 0.038293317 -0.073141836 -0.086322725 -0.061711516 -0.04146705
0.0598966 0.013564217 -0.0382702 -0.08630452 0.20208922 -0.024073532 -0.020015 -0.07641675
-0.102359705 0.1575712 -0.06551159 -0.080663055 0.024832508 0.1495353 0.006057193 -0.05786137
0.13192405 0.04948355 0.072455145 -0.098720275 -0.07289504 -0.06685909 0.02641925 0.00093789026
0.019290736 -0.13170627 0.011403759 0.033252798 0.07560757 0.124523066 -0.0034689486 -0.05129252
-0.0076664747 -0.072624646 0.013154745 -0.07377774 -0.06486984 -0.024945505 -0.00018117632 -0.08261534
-0.20806094 0.03216115 0.22975495 -0.027829254 0.09056862 0.013332096 0.076405935 0.006005818
-0.037433576 0.013020629 -0.08792003 0.10879592 -0.12786369 0.022169875 0.025537727 -0.031889703
0.07310191 -0.022132078 0.10395161 -0.02431017 -0.11463878 -0.067767955 0.012842715 -0.06789107
-0.014788017 0.15117554 0.21256538 -0.05649952 0.05977542 0.027875692 -0.21116911 -0.1781643
-0.00038865607 -0.10788361 0.15101607 -0.06872195 -0.065985054 0.13052395 0.07544187 0.014072013
-0.027949898 0.114519656 0.05029873 0.0013543883 -0.0167698 -0.020957272 -0.020014519 -0.04168136
0.04110986 -0.014077325 0.17183396 0.03552107 0.08327077 0.08651393 -0.106532596 0.15417136
-0.08828952 0.066304736 -0.06658966 -0.09689525 0.018288722 0.1581919 -0.06884815 0.04701711
0.04157586 0.028751431 -0.03377655 0.13073917 0.0542713 0.075941674 -0.052148648 0.09961035
0.05831007 0.017504355 -0.031429783 0.18957736 0.028216833 0.03756022 -0.05832062 -0.064733505

output_weights f4 [2, 100]
00000000: 34f2 80bd 911e 0e3e 133a ab3d 8d05 0e3d
00000010: 623a dfbd 042a 873c a6eb 38be 88d7 ed3c
00000020: 85bc 54bd 1c99 9fbd baa7 6b3d 05c5 67bd
00000030: 757b e5bd a2f5 7c3d 46ef 343c 302c e23c
00000040: 647a cbbc 7905 1bbd 5be1 0a3c 2c88 863a
00000050: 0de6 093e 35d2 023e 725c 0e3a 2dfe 7dbd
00000060: 8b1a 5ebe 3ed5 95bc d369 5c3b ee27 31bb
00000070: c0d7 a7bd 139c 4dbe 5155 10be d0b1 fabd
00000080: da47 8bbc 289d a5bc a576 aebd 4221 fc3d
00000090: 0e4f 4bbd 5aa3 c73d f1b0 ab3d f769 29be
000000a0: 8f73 34bd 9d3e 69bd 9a45 9ebd 1e36 8dbd
000000b0: b812 58bd f952 a63b 52f7 75bc 53ed a73d
000000c0: bfde cdbd d24e afbd 908b 00bd 4fc3 0b3e
000000d0: b736 ca3d 2358 98bc 55ff a13d 60d4 a63d
000000e0: d7df 2b3d 2200 44bd e09a 3c3d dce6 c6bc
000000f0: bb64 fe3d bd9d de3d b8b2 50bd 9f44 8cbe
00000100: e7d9 193e b370 73bc 37b2 e13c bfff 48bd
00000110: 1b49 073d 2e79 813d 1a88 debc b6ac 06be
00000120: 5ee0 1a3c 87d9 35bd b002 da3d 4b83 d5bb
00000130: 5322 a7bd 7bd6 56bd 577a 62bd 4a74 443c
00000140: 54e6 a5bd b79f cdbd 6ff3 ee3d abcd a03c
00000150: 35a3 cd3b 880e 03be 4af6 f53d b39e 163e
00000160: 45f9 6d3c 98ab d83d ef56 64bd fa23 8bbd
00000170: f268 1e3c d5db 0c3d 135d 353b a82c c83c
00000180: 6e59 443d 03a1 e83c 6b9a 8fbd 4f60 193d
00000190: fe11 9e3b 53a9 87bc 8b2b 2fbe 3089 45be
000001a0: 541d 82bc f747 b73c deed b8bb 23d1 3dbd
000001b0: 5ac9 02be 2d10 cf3d 527a 77bd 2769 9d3d
000001c0: e7cf 9e3d feb1 983d 459c 73bd ad7c 60bd
000001d0: 4baa 88bd 1daf c93b 2715 c33d 627d bc3d
000001e0: eb99 f13d 67db 81bd 7078 b03d 2f5f f73d
000001f0: 0028 e2bd 93a8 20be 8417 00be 257c e6bb
00000200: 5748 823c 052b 41bd 6a35 4cbc 8bd7 1d3d
00000210: bd32 c7bc ae46 0b3e 4496 a5bd e8a0 6c3c
00000220: 53ea a5bd 1a51 343d 0a7e df3d 4711 82be
00000230: e30e 09bd cb3c 46bd f7d1 5ebd d84a 3c3d
00000240: afdc 4f3d aaa6 bfbd b230 e9bd d88f 6b3a
00000250: e8cf 513d 3243 14bd bfa2 17bc bcd0 1cbe
00000260: 9b71 09be aba4 823e 81fe c93d 0790 7abd
00000270: e0a5 bcbd a143 443d 5f3a c3bd 98f9 4dbc
00000280: d6c4 1cbe 5b3a 193e 40a3 f33d 72d9 ea3d
00000290: 8376 2f3e 607d 823e bb77 bc3c 8bbb 4cbd
000002a0: ab92 23bd 9761 0fbd abd6 933d 426b 633d
000002b0: b332 37bd 2b53 053e 0f58 ea3d bf86 debd
000002c0: 5beb b03d ed00 dc3d 1047 ac3d b81f f53c
000002d0: a864 d83a fde1 e83d 07f5 053e 4769 e73c
000002e0: 5bbf 7f3d 0581 7cbd d580 103e 503e abbd
000002f0: 78d0 f53d 0355 833d adbf ddbb 086b c53d
00000300: 325b 63bb ee85 1b3e 7bd3 cfbc 773f 4abd
00000310: c5eb 543d eaeb afbd a71a 4fbe f58d 75bc
-0.062961966 0.13878848 0.08360686 0.034673262 -0.108998075 0.016499527 -0.18058643 0.029033437
-0.0519376 -0.07792875 0.057533003 -0.056584377 -0.11205188 0.06175769 0.011043375 0.02760896
-0.024838634 -0.037847016 0.0084765805 0.0010263971 0.13466664 0.127755 0.00054306455 -0.06200998
-0.21689813 -0.018290158 0.0033632412 -0.0027031857 -0.08195448 -0.20079069 -0.14095046 -0.12240946
-0.017002035 -0.02021654 -0.085187234 0.12311031 -0.04963594 0.09747954 0.08383358 -0.16544329
-0.044055518 -0.05694448 -0.07728119 -0.06895088 -0.052752227 0.005075809 -0.015012579 0.08199563
-0.10052251 -0.08559956 -0.031383097 0.13648723 0.09873717 -0.018596714 0.07910029 0.08145976
0.041961517 -0.04785169 0.046046138 -0.024280004 0.124215566 0.1086993 -0.05095169 -0.27396104
0.1502453 -0.014858413 0.0275508 -0.049072023 0.033028703 0.06321941 -0.027164508 -0.13151821
0.009452907 -0.044396903 0.10645044 -0.0065158955 -0.08160844 -0.05245064 -0.055292454 0.011990616
-0.08100572 -0.10040229 0.11667525 0.01962932 0.0062755593 -0.12798512 0.120098665 0.14708976
0.0145247625 0.10579604 -0.05574697 -0.06793971 0.009668576 0.034389336 0.0027673885 0.024435356
0.04793685 0.028397089 -0.07011875 0.037445363 0.004823922 -0.016560232 -0.17106454 -0.19290614
-0.015883125 0.022373183 -0.0056435904 -0.046342026 -0.12772122 0.10110507 -0.060419388 0.07686072
0.07754498 0.07455824 -0.059475202 -0.0548064 -0.06673106 0.0061549083 0.09525519 0.092036024
0.11796936 -0.06340676 0.08616722 0.12078702 -0.11042786 -0.15689306 -0.1250897 -0.007033842
0.015903635 -0.047160167 -0.012463907 0.038535636 -0.024316186 0.13601181 -0.080853015 0.01444266
-0.081013344 0.044022657 0.10912712 -0.25403807 -0.033461463 -0.04839782 -0.054399457 0.045969814
0.05074757 -0.093579605 -0.11386241 0.0008985973 0.051223665 -0.036196895 -0.00925511 -0.15314001
-0.13422243 0.25516257 0.09862996 -0.06117251 -0.09211326 0.04791606 -0.09532618 -0.012571715
-0.15309462 0.14963667 0.11896372 0.11467256 0.17135052 0.2548628 0.02300631 -0.049983542
-0.039934795 -0.03500518 0.07218679 0.05552221 -0.044726085 0.13020007 0.11442577 -0.108655445
0.086386405 0.10742364 0.084119916 0.029922351 0.001650949 0.11371229 0.13081752 0.028248442
0.06243835 -0.06164648 0.14111646 -0.083614945 0.12002653 0.06412699 -0.0067672343 0.09639555
-0.0034691808 0.15187809 -0.025369396 -0.04937693 0.05198266 -0.08589919 -0.20225011 -0.0149874585
