models/twobit1000.pth (torch, 43369 bytes, 3 tensors)

input_weights f4 [100, 2]
000000 38 01 d3 bb 9a dd 9a be f9 ed 85 be 26 9c f0 bd
       -0.0064393543 -0.30247194 -0.2615812 -0.11748533
000010 e5 84 95 3d af 08 94 be b9 d3 70 3e 06 e6 f6 3c
       0.07300738 -0.28912875 0.23518266 0.03013898
000020 a0 0c 5d be 7c 8a e0 bd e2 c3 a7 3e 84 c2 62 be
       -0.21586847 -0.10963914 0.32766634 -0.22144514
000030 ce 70 57 be 8f e0 b7 3e 37 cc 88 bd eb c8 fc 3e
       -0.21039125 0.35913512 -0.06679576 0.49372038
000040 35 0d db be fd 2f e6 bd 77 f9 e7 3e f9 af e4 bd
       -0.42783514 -0.11239622 0.45307514 -0.111663766
000050 8b fb f0 bd 10 fa ca bd a6 4f 82 3d cd bf 99 be
       -0.11766728 -0.09910977 0.06362848 -0.30029145
000060 96 60 95 bd ec e1 aa 3e e5 7e 1f 3e 6f 18 b3 3e
       -0.07293813 0.3337549 0.1557575 0.3497958
000070 f6 b5 4a 3f aa ee 2b bd 43 fa 1f 3c 66 18 1a bf
       0.791839 -0.041975655 0.009764257 -0.6019348
000080 56 57 cd 3d de 1a c4 3e 0f 19 a7 be 42 b6 7c 3e
       0.10026424 0.38301748 -0.32636306 0.24678901
000090 1b 71 a4 be da c2 46 3c 8b cd 7e be 0d 31 45 be
       -0.32117543 0.012131417 -0.24883096 -0.19256993
0000a0 2e 5b 4d bd e3 47 29 bf 72 63 2d 3e 8f 38 36 3e
       -0.050135784 -0.66125315 0.16932467 0.17795013
0000b0 cd 8e cf 3d 71 2c 8d 3e 07 84 69 3e cb 58 84 bd
       0.10134659 0.2757297 0.2280427 -0.064622484
0000c0 d5 11 5d 3c 53 7e 5a 3e a2 95 11 3f 0f 2b 9b 3b
       0.013493021 0.21337251 0.56868947 0.0047353576
0000d0 74 ce d5 bd 33 1d a2 be 05 5a 33 be 9b 71 a3 be
       -0.104397684 -0.31662902 -0.17514808 -0.31922612
0000e0 13 04 56 3e 89 54 44 3f af a3 82 be c5 b2 e2 bc
       0.20899992 0.7669149 -0.25515506 -0.027673135
0000f0 33 7d 22 bc 9d 52 7d 3e 5f 51 a7 3d 44 3a 3b 3e
       -0.009917545 0.24738546 0.08169817 0.18283945
000100 fa bd 2a be e2 c3 7b bd b7 88 c7 be 3c 4c 92 3e
       -0.16674033 -0.061466105 -0.38971493 0.28573787
000110 30 0c f7 be 8d 43 1d be d9 52 83 3e df 7e 2c be
       -0.48251486 -0.153578 0.25649145 -0.16845272
000120 f7 10 1d be 00 db d9 bd bc 3f 39 3e e3 d3 76 3e
       -0.15338503 -0.10637474 0.18090719 0.24104266
000130 49 45 2b be 72 37 5e be 62 84 4f be c3 13 9c 3e
       -0.16725649 -0.21700838 -0.20265344 0.30483827
000140 c7 21 26 bc 86 5b a9 be c9 53 83 be fb 35 2c 3f
       -0.010139889 -0.3307764 -0.2564986 0.6726987
000150 54 de 86 be a4 7e 31 bd 4d be 82 be ea 61 e2 bd
       -0.26341498 -0.043333665 -0.25535813 -0.11053832
000160 1a a4 cc be e5 f8 77 be 67 d4 b2 3e c6 84 98 be
       -0.3996895 -0.2421604 0.34927675 -0.29788798
000170 d6 8a 0e 3d eb 6e 47 be 94 7f 18 bd 71 c8 15 bd
       0.034800373 -0.19475906 -0.037231043 -0.03656811
000180 72 53 33 3e f5 d6 2b bf 8a ea 31 bf 4d a8 3f 3d
       0.175123 -0.67124873 -0.69498503 0.046791364
000190 f4 64 d6 3e 87 e4 9a 3b 3c a1 25 be 0d 3a 57 3d
       0.41873896 0.0047269496 -0.16174787 0.052545596
0001a0 d3 4a a4 be 5b fe f3 3d b7 c0 39 be 04 4f b2 3e
       -0.32088336 0.11913749 -0.18139921 0.3482591
0001b0 cb 45 5a 3e 85 17 8b bd 28 d6 a8 be ff 10 39 3e
       0.21315686 -0.06791595 -0.32975888 0.1807289
0001c0 07 d4 a2 3e c3 d7 a8 3d e3 b2 5c be 52 89 de 3b
       0.3180239 0.08244278 -0.21552615 0.006791272
0001d0 f3 3c 80 be a1 49 b5 bc 56 78 27 bf c2 08 11 3e
       -0.250465 -0.022129836 -0.65417993 0.14163497
0001e0 10 77 fe bd 23 23 59 be e9 23 79 3e 0d 28 74 3e
       -0.12425053 -0.2120481 0.24330105 0.23843403
0001f0 07 01 1a bf 3a 6a 07 3d 90 2b 4a be 7f 78 1c 3e
       -0.6015782 0.03306029 -0.1974318 0.1528034
000200 76 81 3b 3e ef b7 6f be db 1a 84 be 41 b0 8c bd
       0.18311104 -0.23410009 -0.2580174 -0.06869555
000210 5d ad c8 be 21 01 23 3d c4 ba 4a 3d 3b bf 21 3e
       -0.39194766 0.039796 0.04949452 0.15795605
000220 c6 4d 34 be a2 ab 4c bf 4b f3 4d bb f8 f1 a6 3e
       -0.17607793 -0.7994939 -0.0031425531 0.32606483
000230 67 42 50 bc e2 f0 f8 bd 60 b8 7f 3e b0 2c dc be
       -0.012711144 -0.1215532 0.24972677 -0.43002844
000240 d2 ea 1a 3b f7 d8 4f bf 85 91 0b bf 5e bb 11 be
       0.00236385 -0.8119044 -0.5451892 -0.14231631
000250 a1 86 b0 be 47 df de bc 02 a1 65 3f e4 36 ce 3c
       -0.34477714 -0.027206076 0.89698803 0.025172658
000260 f8 a5 96 be 29 7b 43 be 47 3d 36 3e ed 41 5a 3e
       -0.294235 -0.1908995 0.17796813 0.21314211
000270 80 8c 2e 3e 31 e4 27 be e9 2e 44 3e 31 b2 24 3e
       0.17045784 -0.16395642 0.1915852 0.160836
000280 4f 34 d8 3e fe e8 c2 3d 14 d6 0d bf e9 49 95 bc
       0.42227408 0.09517096 -0.5540478 -0.01822372
000290 c8 dd b0 bd 66 cd c6 3e c7 fb c3 3e f5 98 39 be
       -0.086360514 0.38828582 0.38278028 -0.18124755
0002a0 af d6 d0 3d 54 45 b2 be a9 89 1a bf 4b 2e 4a be
       0.10197198 -0.34818518 -0.603663 -0.19744222
0002b0 ee 44 59 bd e2 d8 90 be f0 7d 90 3e f9 88 34 be
       -0.053044252 -0.28290468 0.28221083 -0.17630376
0002c0 6a b4 b0 3e ad 54 45 bd 12 dd ac 3e c1 7f 7d 3e
       0.34512645 -0.048176456 0.33762413 0.24755765
0002d0 a4 64 91 bc 3a c9 01 bf 85 ae 66 be be 57 91 bd
       -0.017748185 -0.5069767 -0.22527511 -0.070968136
0002e0 b3 f2 cf 3d 79 02 8d 3e b6 3c 07 be 5e 32 4c be
       0.10153713 0.2754095 -0.13206753 -0.19941089
0002f0 32 6d 17 3e d7 f4 cd bd c0 68 b9 3e a6 72 9d 3d
       0.14787748 -0.10056465 0.3621273 0.07687883
000300 25 d9 94 be d3 e9 dc be 3d 57 e7 bd 85 3e c4 bd
       -0.29071918 -0.43147144 -0.11295936 -0.09582237
000310 b7 7a 2e 3d 55 8e cf 3d 5c 70 55 be fe 3b 01 3e
       0.0425975 0.101345696 -0.20843643 0.12620541

recurrent_weights f4 [100, 100]
000000 f7 5f 07 be b1 0a 24 3d ef 5e f3 bd a9 e8 29 bd
       -0.13220201 0.04004926 -0.118833415 -0.041481648
000010 15 0c d8 3b 25 3c 6a bd 40 c3 4c 3d 62 27 11 bc
       0.006593237 -0.057186265 0.049990892 -0.008859487
000020 a9 85 d4 bc d6 b1 dc bd 2e f7 19 3e 8d e8 20 3d
       -0.02594264 -0.10776107 0.15035698 0.039284278
000030 59 26 42 bd 59 6a c9 3d 73 55 92 bd b2 41 dc 3d
       -0.047399852 0.09834737 -0.071452044 0.10754718
000040 91 7e 59 bc 15 db 57 bd ce 20 87 bb ee 0e 06 be
       -0.013274805 -0.052699167 -0.0041237837 -0.13091633
000050 f6 48 d9 3d be 6e 18 bd e4 44 de 3c ec 1f 5c 3e
       0.10609619 -0.037214987 0.027132459 0.21496552
000060 e1 dc c2 bd 1f 08 80 bd 50 08 43 bd 63 65 b5 bd
       -0.095147856 -0.06251549 -0.04761535 -0.088572286
000070 93 00 b8 bd 0d 4b 0a be f2 5d f2 3b 2a a7 db bc
       -0.089844845 -0.13505192 0.007396453 -0.026813108
000080 e6 33 b0 3d a9 f4 3e bd 34 84 01 bd 72 58 a2 3b
       0.08603649 -0.046620045 -0.03162022 0.004954391
000090 53 c5 82 bd 78 39 22 3e d3 71 ab bd 57 be 33 3e
       -0.06385293 0.15842235 -0.083713196 0.17553078
0000a0 b0 85 ca 3c cb 45 b1 3d 64 c5 0f 3e e4 6b fe 3c
       0.02472195 0.0865589 0.14040142 0.031057306
0000b0 9d 56 bb bd 38 75 85 bd 14 05 34 be 8f c7 86 bd
       -0.091473795 -0.06516498 -0.17580062 -0.065810315
0000c0 fe d1 85 bc b4 ff e7 bd fa 6f 73 bd b7 15 95 3d
       -0.016335484 -0.113280684 -0.05943296 0.072795324
0000d0 92 96 8a bd f8 06 f2 3d 3f 64 92 3d b5 78 0d be
       -0.06767 0.118177354 0.07148027 -0.13815577
0000e0 2a 8f 30 3c e0 31 cd 3c ae ea bc bd c8 a7 02 3e
       0.0107763205 0.025048196 -0.09224449 0.12759316
0000f0 a2 57 25 3d 19 12 d1 3d eb fc ac bc 9a 88 73 3d
       0.040366776 0.1020853 -0.021116694 0.059456445
000100 74 79 de bd 8b ef d3 bd b4 b2 75 bc 68 ed 36 3e
       -0.10863009 -0.103484236 -0.014996219 0.17864001
000110 e0 a4 9c 3d 5a b7 c7 bd 1c e8 94 3c 4f 81 43 bd
       0.07648635 -0.097517684 0.018177085 -0.04773074
000120 b7 70 f4 bb 74 ed 19 3d 1c f8 20 bd 05 0e c6 3d
       -0.0074597257 0.03757997 -0.039299116 0.09670643
000130 f1 23 45 3d 2b b3 f0 3d cc ad fb 3b f9 11 f3 3c
       0.04812998 0.117529236 0.0076806303 0.029671656
000140 8a 15 ed 3d f0 d6 96 3d a4 d2 af bb 41 e2 2c bc
       0.11576374 0.07365215 -0.0053656865 -0.01055199
000150 f5 c1 9f bd 26 d9 51 3d 8f 6f 5f 3d af a7 71 be
       -0.07800666 0.05123248 0.05454975 -0.23599122
000160 7e 8e 07 3e ee 85 5d bd 43 0f fc 3b d5 9d b5 3d
       0.1323795 -0.054082803 0.007692249 0.08867995
000170 3b c2 de 3d 47 7e 02 3e e7 60 b9 bc a9 81 82 bc
       0.1087689 0.12743483 -0.022629214 -0.015930967
000180 d2 94 8e 3d f6 38 0b 3d 28 92 0c 3c 5b d4 97 bd
       0.06961979 0.03398987 0.008579768 -0.074135505
000190 14 2c 2c 3e 5f 08 c8 bb 0b c7 4e 3d d3 eb 9c bd
       0.1681369 -0.0061045135 0.05048279 -0.076621674
0001a0 08 c5 3c bd 90 70 55 3d fc 1a 5b 3d 91 65 a0 bc
       -0.04608634 0.0521093 0.05349253 -0.01957968
0001b0 2b 8d 40 bd 68 c7 d6 3c 16 90 2d 3e df b6 b9 3c
       -0.04700963 0.026218131 0.16949496 0.022670208
0001c0 a6 ff e0 bc 25 93 c6 3d 7c 40 63 3c b0 dc 09 3e
       -0.027465653 0.09696034 0.013870355 0.13463092
0001d0 12 8f 1c be 3a 5b 0d 3e 7b e9 cf bd 93 2c 89 3d
       -0.15288952 0.13804331 -0.10151955 0.06697955
0001e0 78 83 35 3d 5d e3 f2 3d d1 1f 8d 3c 71 2d ef 3d
       0.04431483 0.11859772 0.017227085 0.11678589
0001f0 1e ce 82 3d fb bd 1c bd af 73 0c 3c f1 ab 85 3d
       0.0638697 -0.038267117 0.008572503 0.06526936
000200 f2 96 d9 bc 0f fc 8b 3d 81 c4 84 3d bc 00 ab 3d
       -0.026561234 0.06835186 0.06482793 0.083497494
000210 a6 20 95 3d 90 a5 8a 3d 7a 90 05 3e 0d bd 8e 3d
       0.07281618 0.0676986 0.13043395 0.06969652
000220 86 cf 7b bd d9 0f ba 3d 91 1e ea 3c c0 a5 01 be
       -0.061477207 0.09085054 0.028579028 -0.12660885
000230 d5 1e 4c bd 9a 80 2a 3e 84 fc d1 3d 6c ab 39 bc
       -0.04983409 0.1665062 0.10253242 -0.011332374
000240 ac 8b 10 3e d7 59 79 3d 86 24 c8 3d d2 03 80 3d
       0.1411578 0.060876694 0.09772591 0.06250729
000250 7a d1 94 bd 11 3c 80 3d 11 84 02 be 1b 5a 2c be
       -0.07266517 0.06261457 -0.12745692 -0.16831248
000260 ac 0d be 3d 47 7f 0f 3e fd 5e 3c be 6d 3a 2a be
       0.092799515 0.14013396 -0.1839561 -0.1662385
000270 45 5b f0 bc bc 78 8e bc 2d d0 79 3d 6b 6f 00 3d
       -0.029340396 -0.017391555 0.060989548 0.031356256
000280 83 bd dd 3b 06 cb 76 bc bb 3d 3a 3d e8 d8 b1 3b
       0.0067669763 -0.015063053 0.045469027 0.0054274686
000290 4a 06 19 3d 61 35 81 bd 5d 5c b4 3d 26 27 82 bc
       0.037359513 -0.06309009 0.088066794 -0.015887808
0002a0 d8 b9 90 3b f3 e2 43 bd 83 21 66 3c f9 32 82 bd
       0.0044166856 -0.047823858 0.014046076 -0.063573785
0002b0 02 d6 06 3e 07 f1 c5 bd 36 9e fb 3d 9e ae 0d be
       0.13167575 -0.09665113 0.12286036 -0.13836142
0002c0 08 12 9c 3d 16 f2 d4 bd 36 6f 6f 3c 53 fc 56 bd
       0.07620627 -0.10397737 0.014613917 -0.05248673
0002d0 7c f1 8a 3d 3e cd e5 3c f9 c8 de bd d5 36 8f 3d
       0.06784341 0.028051969 -0.10878176 0.0699288
0002e0 08 e3 72 3d 65 2a f7 3b c0 89 bf 3d 84 32 cc 3d
       0.059298545 0.0075428956 0.093524456 0.099705726
0002f0 d9 a3 0e 3e 73 1f f8 bc 27 5f f8 bc 50 87 c6 3d
       0.1392969 -0.030288434 -0.03031881 0.096937776
000300 27 86 31 bc 75 5f 90 bd d4 5f 99 3d 18 e8 3b bc
       -0.010835207 -0.07049457 0.07488981 -0.01146891
000310 45 27 74 bc 6f f8 de 3d 3f a5 be 3c 97 13 d4 3d
       -0.014901941 0.10887229 0.023272155 0.10355299
000320 60 e2 67 bd 84 fa 80 bd cc 53 89 3d 27 f8 a0 3d
       -0.056612372 -0.06297782 0.06705436 0.07859831
000330 7f 88 30 3d 8b b9 02 bb c3 45 0c bc 12 34 cf bd
       0.043098923 -0.0019947018 -0.008561554 -0.101173535
000340 9f 04 2e bd 82 3b 8e 3e e8 0b 25 3d cf d6 2f bc
       -0.042484876 0.27779776 0.040294558 -0.010732367
000350 65 3a c2 ba ce 58 e9 3c a4 57 14 3d c0 72 12 3d
       -0.0014818428 0.028484728 0.036216393 0.035753965
000360 43 e1 13 3e 26 64 31 3d f1 54 9d 3d 28 b1 94 3d
       0.144414 0.0433084 0.07682217 0.072603524
000370 67 ee 81 bd 47 74 86 bd b5 b7 de 3d b2 e5 16 3d
       -0.063443 -0.06565147 0.10874883 0.03684015
000380 81 89 00 be 28 38 92 3d 73 50 7d bd 2a 54 60 3d
       -0.12552454 0.07139617 -0.0618443 0.054767765
000390 66 06 87 3c fb 92 62 be 13 55 a5 bd 45 f7 a7 3d
       0.016482543 -0.22126381 -0.08072867 0.0820146
0003a0 c8 9c 2b be 03 aa ee 3c 8d 3b f3 3b 44 11 c7 3b
       -0.16759026 0.029133802 0.0074228705 0.0060750563
0003b0 f3 c2 45 bc e1 8d c1 bd c9 63 5b 39 4a 61 e2 bd
       -0.012070405 -0.094508894 0.0002092264 -0.11053713
0003c0 f5 1d e5 bd e7 25 4c bd fb 4e 48 3c b6 3a 39 be
       -0.111873545 -0.049840834 0.012225862 -0.18088803
0003d0 e4 a9 85 bd 31 8b d6 bd d2 92 28 3e a4 e8 ca 3d
       -0.06526545 -0.104757674 0.16462258 0.09907654
0003e0 c3 07 18 3a f6 76 c9 bc f9 c8 c5 bc 5c b9 df 3c
       0.00057994964 -0.024592858 -0.024143683 0.027310066
0003f0 9f 5c 7a 3d 19 d1 93 bc 11 73 61 3b b3 89 d3 bd
       0.061123487 -0.018044041 0.003440086 -0.103289984

output_weights f4 [2, 100]
000000 94 ef e5 bd 65 24 fa 3c fc 5a ee ba 49 47 8e bd
       -0.112273365 0.030534932 -0.0018185074 -0.0694719
000010 60 3f e5 bd c4 28 20 bd aa 3a 79 be 92 bb ef bd
       -0.111937284 -0.039101377 -0.24338785 -0.11705698
000020 9a 4a b9 3c b1 5b 67 3d 97 16 93 bd c8 90 8c 3d
       0.02261858 0.056483928 -0.07182043 0.06863552
000030 ff eb 34 be 5c 3e b0 3c 09 0c b8 3e 97 ce be 3d
       -0.1766815 0.02151411 0.35946682 0.09316748
000040 64 75 7b 3c 57 19 17 3c ee 7f 76 3d 72 2d 5e bd
       0.015347812 0.00922235 0.060180597 -0.05424256
000050 b1 b3 5f 3e b5 6c 84 bc 0c e1 00 3d f0 aa 57 3e
       0.2184589 -0.016165117 0.03146462 0.21061301
000060 e5 b6 28 3e 9a 32 3e 3e 76 f5 2f 3e e4 31 2b bd
       0.16476019 0.1857399 0.1718348 -0.041795626
000070 ef 94 4a 3e ff 4e c6 bd 26 4b 5a be f7 ef 33 3e
       0.19783376 -0.09683036 -0.2131773 0.17572008
000080 a9 c8 b9 bd a1 6c 30 bb 0a 9b 8c be 84 71 de bd
       -0.09071476 -0.0026920217 -0.27462035 -0.10861495
000090 b4 71 f6 bd f2 81 46 bd f5 94 72 bc 4d 2c fa bd
       -0.12033406 -0.04846377 -0.014806022 -0.12215481
0000a0 29 7e e7 3d 30 50 18 3c 06 4f d6 3d 94 fa 6e bd
       0.1130336 0.009296462 0.10464291 -0.05834444
0000b0 c9 17 7b bd 30 e0 1e bd 77 9c a7 3b 8a 73 b0 bd
       -0.06130198 -0.03878802 0.0051150876 -0.08615787
0000c0 5b f2 38 bd d7 b1 75 be 72 02 f6 bd 97 bd b7 bd
       -0.045153003 -0.23993622 -0.12012185 -0.08971708
0000d0 9a d8 21 bd f3 4b b8 3d 9b 1e 04 3c 06 04 b1 bd
       -0.039513208 0.08998861 0.008063938 -0.086433455
0000e0 9b 9e 0e bd 95 12 e6 bd 06 f4 0b 3b 8b 60 28 be
       -0.034819227 -0.11234013 0.0021355166 -0.16443078
0000f0 31 d0 35 bd 85 92 30 3d c7 8c 08 3e 17 73 ad bd
       -0.044388 0.043108482 0.13334952 -0.08469217
000100 53 fc c4 3a f1 48 c4 bd 9a 81 ce bd d8 74 75 be
       0.0015028812 -0.09584225 -0.10083313 -0.23970354
000110 09 a9 ff bc 03 c5 42 3d c0 e6 c1 bc 35 fa 2c 3d
       -0.031208532 0.047551166 -0.0236696 0.042230804
000120 03 a8 84 bd bb 37 3c be 13 cb d2 be 1e a1 c6 3e
       -0.06477358 -0.18380634 -0.41170558 0.38794798
000130 1b f1 5b 3d 35 7c 8b bd 46 c2 ee bd e9 33 1c bd
       0.053696733 -0.068108 -0.116581485 -0.038135443
000140 75 4e 98 3d df 9b a7 3c aa bd f0 bc 50 6d fa 3d
       0.074368395 0.020460067 -0.029387314 0.12227881
000150 00 60 c2 3d 1f 97 94 bd cb 7e ce bd e0 31 a9 3c
       0.09490967 -0.072553866 -0.100827776 0.020653665
000160 22 1b e1 3d 87 53 cf 3d 34 90 6d 3d 4d ea 7b bd
       0.10991503 0.101233535 0.05799885 -0.061502744
000170 85 40 20 bd a4 cf 25 3d a6 8e 29 3d 07 60 98 3d
       -0.03912403 0.040481225 0.041395806 0.07440191
000180 8b 88 88 be fd 35 75 be bf 46 b9 bb 10 7b dc 3c
       -0.26666674 -0.23946376 -0.0056541855 0.02691415
000190 b5 68 0c 3c ac 87 27 3c 4c 68 df bb ba 2c 40 3d
       0.008569886 0.010225218 -0.006817853 0.046917655
0001a0 d7 80 49 be 21 09 93 3d 23 e6 cb 3d 4f 98 d1 3d
       -0.19678055 0.071794756 0.099560045 0.10234129
0001b0 ba 68 5d be 61 60 46 bd 10 55 05 bd 8d 6a bd bd
       -0.21621981 -0.048431758 -0.032551825 -0.092488386
0001c0 70 03 37 3b 08 45 3d 3d 9c 92 ce 3d 2a 70 93 be
       0.0027925633 0.04620841 0.10086557 -0.28796512
0001d0 66 dd 3f 3e 8b 3f 17 3d 1e 5e ce 3d 81 30 09 be
       0.187368 0.036925834 0.10076545 -0.13397409
0001e0 f8 da 95 be 00 e6 df 3d 6d 1a 33 3e b3 b7 dd bc
       -0.29268622 0.10932541 0.1749055 -0.027065134
0001f0 e5 a2 23 bd ae af ab bd d2 84 d9 3c 45 16 0c be
       -0.03995027 -0.083831176 0.026552591 -0.1368037
000200 b6 8d af 3e f5 c2 d4 3d 15 48 03 3d c6 8c 6a 3e
       0.34287804 0.103887476 0.032051165 0.22905263
000210 6e 50 18 be 7e 93 55 3d 32 d7 d4 bd cb 74 36 3e
       -0.14874431 0.052142613 -0.10392608 0.1781799
000220 98 90 17 be 4a 24 72 3d 82 16 00 bc 02 d2 96 3e
       -0.14801252 0.05911664 -0.007817866 0.29457098
000230 75 14 89 bd af ab 59 3e 88 db 17 be 61 7c e9 39
       -0.06693355 0.21256898 -0.14829838 0.00044533893
000240 3d 36 b0 3d 9a b2 b2 bd 74 d1 bd be 22 72 32 bd
       0.08604095 -0.08725472 -0.37073863 -0.043565877
000250 a3 ea f9 bb 45 35 e3 bc 8c 7a 86 3d 1a 2f 3b be
       -0.007626848 -0.027735362 0.06566343 -0.18279687
000260 36 c3 52 be 54 e2 cd 3d f2 02 0d be c0 46 a0 3d
       -0.2058228 0.10052934 -0.13770655 0.078259945
000270 3a 6a d5 bd 52 c8 59 3e c4 83 40 bc 3f fe d0 3d
       -0.10420652 0.21267822 -0.011750165 0.102047436
000280 7d ca e1 3d 7c 2d 77 bb 5e 14 d3 3b 4a a8 41 3d
       0.1102495 -0.003771632 0.006441637 0.047279634
000290 b4 1d 45 3e 38 c8 4d 3d 9a 36 49 3e 94 47 b2 3d
       0.19249612 0.05023977 0.19649735 0.08705059
0002a0 8d 0c bb be 62 b3 9a 3d c2 cb a3 3d c5 cb 09 be
       -0.36533013 0.07553746 0.07997848 -0.13456638
0002b0 98 93 14 bd 51 fc f6 3b 8a 98 ea bc 77 b1 b5 bd
       -0.03627357 0.0075374027 -0.02863719 -0.08871739
0002c0 32 80 40 bd 12 6f 52 3d b4 18 ef bd aa 33 04 3e
       -0.046997257 0.051375456 -0.116746336 0.12910333
0002d0 60 5d 3d 3e 40 57 67 3e 58 85 39 bd 24 6c 06 3a
       0.18492651 0.22591877 -0.045293182 0.00051278085
0002e0 f8 af 1f be d4 47 8c bb fe fc 22 bd dc 37 31 3d
       -0.1559447 -0.0042810235 -0.039792053 0.043266162
0002f0 25 b6 c7 bb 67 e3 73 be d7 b1 f8 3c 6a e1 74 3d
       -0.0060947114 -0.23817216 0.030358238 0.059785284
000300 a7 4a 23 be e0 84 d5 3c 41 e6 f1 3d e5 b6 e3 bd
       -0.15946446 0.026064336 0.118114956 -0.11118869
000310 6a 8c 38 be 5a d2 9c bd 55 bd 7b 3d 22 aa 80 3d
       -0.18022314 -0.07657309 0.061459858 0.0628245
