models/twobitrnn.pth (torch, 43362 bytes, 3 tensors)

input_weights f4 [100, 2]
00000000: 2ad6 373d ff59 483f 0525 42bc ae31 443f
00000010: 9ba3 85be 9f92 873e a83d 60be aa19 f3bd
00000020: b12b cb3e 355e 353e c3dd 3bbf 50ef 103e
00000030: 1449 da3e f40d 33bc b05f dabd 3658 4c3e
00000040: a88e 72bd 7158 183f 2c22 dbbe 636e ae3d
00000050: 9839 c23e 7d14 8e3e 93fe fc3d 5aa4 863d
00000060: 8a04 b5be 9096 f5bd c634 b6be bffe 00be
00000070: 6e7f b7bc f959 93be 1d55 32be 1fb0 cd3e
00000080: 6aaa 2a3e 8d5a a23e dac5 3abf 85e2 c9bd
00000090: 4202 46be 3183 bdbe 20dd bfbe 605d a3be
000000a0: f162 2cbe b816 c73e 834f 82be 07ef 8a3f
000000b0: 15ae e03d 620d 5fbe d58a 9d3e 51e4 2c3e
000000c0: 6013 24bd 5d6e ce3d 3a71 48be c08a d33e
000000d0: a9c2 18bf cded dcbd 2289 b4bd e4bf 4e3f
000000e0: 0a30 f9bd a880 453e 5bcb 863d c436 273f
000000f0: f675 dabe fb31 763e 4fea ecbe c7be 03be
00000100: f16d 493d d5de c4bf 7f5a b93d 6fd4 f6be
00000110: 53ba d1bd 75b2 243c 8e7c d63e 46f7 1bbe
00000120: b033 78bf 3c57 0ebe 2409 fdbe f916 a2bd
00000130: 56e5 6bbe d8df 903e 5a26 003f be31 a03d
00000140: 4e0a 30bd 04b3 f4bf 5158 88bd bd7f 42bf
00000150: 0831 103d a253 143f c9f5 35be b831 44be
00000160: 0faa b73e 0a3c 10be 2c17 7bbd 18b9 a1be
00000170: 86b1 a03e 0c5d ecbe 337e 2a3f a27f 9e3d
00000180: be38 a33e db1f 21be 8d54 903e d485 e6be
00000190: cd66 e5bf 1e5d f73d b414 9ebf 7897 1f3e
000001a0: 3add 1a3f f074 343e 7c3d 9c3d c2c2 ab3e
000001b0: 7581 66be 4fc2 e4be 89ab e9be 4768 b03d
000001c0: cc77 b53e e3e7 a7bc 2416 87be 4f05 eabc
000001d0: a3e7 6bbe f42e a93d 6ca4 753f 51d8 3ebe
000001e0: 36bf a3bb c2a6 2fbd 6b3f d73f 7f80 9f3d
000001f0: 415b 133e 9883 eb3e 56a5 03bf 8c7a 603e
00000200: 2d30 d03c 3bf5 f0bf d78a bc3f 8d43 d2bc
00000210: 3cb9 fbbd 9359 2a3d 338c 313e 52d7 f3bb
00000220: dc7b 21be c9fc bf3e 1eb0 8e3e 303b babd
00000230: 58ef 643e 5aea f8be 48c0 f3be 3876 9bbc
00000240: 2427 5bbf 7e26 86bd b86d c03e 66cb 1abd
00000250: e0ae 86be c935 3bbe fb31 ac3e 5d4a 943f
00000260: 013f 113d 2bb2 2b3f b73c d83e c9df ab3d
00000270: 31ae eabf db4a 9bbc 482f 7d3d 77ce 21bd
00000280: 54b8 9d3e b006 ca3d 4e06 a1be ba6b d6bb
00000290: 382d 223e cc16 d0be 4973 9ebc cddc fcbe
000002a0: c878 3c3d de61 0ebf 2017 0ebd 2cdc b1be
000002b0: 2cd1 82be 6316 0e3d 9f43 9c3d 25b6 703e
000002c0: 9170 983e b5cc 803e 9680 b6bd 962c babd
000002d0: f72a e73e 911e 65be 9738 a1be 450c 3f3d
000002e0: 85dc 6a3d 60d2 ebbf 8f8e 663f fadd 46bd
000002f0: 6605 02be 03fb eebe 5deb c7bf fb18 053e
00000300: 6d12 7cbf 53c2 03be 135a 583d 976d 653e
00000310: 9219 c33b 7ccb 27bf 99b6 91be 3c1c a0be
0.044881977 0.78262323 -0.011849646 0.76638305 -0.26101384 0.2647905 -0.2189852 -0.118701294
0.3968177 0.17711718 -0.73385257 0.1415379 0.4263388 -0.01092862 -0.10662782 0.19955525
-0.05921808 0.5950995 -0.4279951 0.08517148 0.37934566 0.27750006 0.12353244 0.06574316
-0.35355026 -0.11991608 -0.35587138 -0.12597178 -0.02239963 -0.2877958 -0.1741528 0.40173432
0.1666657 0.3170971 -0.7295815 -0.09857658 -0.19336799 -0.37014154 -0.37473392 -0.31907177
-0.16834618 0.3888452 -0.25451288 1.0854195 0.109707035 -0.21782449 0.30769983 0.16883971
-0.04005754 0.10079644 -0.19574443 0.41316795 -0.5967203 -0.107875444 -0.088152185 0.8076155
-0.12167366 0.1928736 0.06581756 0.6531794 -0.42668122 0.24042504 -0.46272513 -0.12865745
0.049177114 -1.5380503 0.09050464 -0.4820895 -0.10240617 0.010052313 0.41891903 -0.15231046
-0.9695387 -0.13900465 -0.49421036 -0.07914538 -0.23036703 0.2829578 0.5005852 0.078219876
-0.042978577 -1.9117131 -0.0665747 -0.75976163 0.03520301 0.57940114 -0.17769541 -0.19159591
0.35871932 -0.14085403 -0.061301395 -0.31586528 0.3138544 -0.4616474 0.66598815 0.07739188
0.31879228 -0.15734808 0.28189507 -0.45023978 -1.7921997 0.120783076 -1.2350068 0.15585124
0.60493815 0.17622733 0.07628915 0.33547026 -0.22510321 -0.44679496 -0.45638683 0.08613639
0.3544296 -0.020496314 -0.2638408 -0.028566984 -0.23037581 0.08260909 0.9595401 -0.18637206
-0.0049971594 -0.042883642 1.6816229 0.077881806 0.1439028 0.45998836 -0.5142416 0.21921748
0.025413597 -1.8824838 1.472987 -0.025666976 -0.1229119 0.04158933 0.17338638 -0.0074414397
-0.15769905 0.37497547 0.27868742 -0.0909332 0.22356927 -0.48616296 -0.47607636 -0.01897727
-0.856066 -0.065503106 0.3758371 -0.037791632 -0.26305294 -0.18282236 0.33631882 1.1585194
0.035460476 0.6706874 0.42233822 0.08392293 -1.8334409 -0.018956592 0.06181267 -0.03950354
0.30804694 0.09864557 -0.31450123 -0.0065436037 0.15837562 -0.40642393 -0.019342082 -0.49387208
0.046013623 -0.55618083 -0.034690022 -0.3473829 -0.2555021 0.03468932 0.07630085 0.23506983
0.2977338 0.2515618 -0.089112446 -0.09090535 0.45149967 -0.22374941 -0.31488487 0.04664256
0.05733921 -1.8423576 0.9006128 -0.048551537 -0.12697372 -0.46675882 -1.5618702 0.1299781
-0.98465616 -0.12867098 0.052820276 0.22405086 0.005953976 -0.6554487 -0.28459623 -0.3127154

recurrent_weights f4 [100, 100]
00000000: 93a9 84be 983a 5abe 620f eabc 5d95 873b
00000010: 2e48 303e 0c99 c4bd 14f8 1ebe 2a04 bc3c
00000020: aa15 02be 0689 29be fe3b 053d 6b9e febd
00000030: 54f8 3d3d 74d2 833d c504 a53c 9aeb fd3d
00000040: 0898 81be 85d5 36be bf3e 1d3e 72ec 4d3d
00000050: ce7a a63b fa59 10bd 4850 033d a326 2ebe
00000060: e46c 9b3d f0ad 853d de48 4ebc 8bd3 0fbe
00000070: 0338 a1bb 16d1 a8bd b1d9 81be 6fed 493e
00000080: 3479 d13d 37fa 29bd 1c0a dcbd df07 533e
00000090: f336 e63d e7eb 443c 5081 bebd 1e5d 10bb
000000a0: 5a6c d53b 2caf 543e 9fae 1ebd 761d ee3b
000000b0: 8124 323d 2e4c cf3c db6d 733d d80d fa3a
000000c0: bcd7 af3d a821 453e b783 ef3c 2749 4bbe
000000d0: 677b 5bbe 7b17 42bb e6e8 d4bd c2e4 903d
000000e0: 5c6f 583e 4a43 87bd 223b 8a3c 25ce 5ebe
000000f0: 740f cb3c 62f7 eebc 12b1 67be 8067 6dbe
00000100: aaaa 1abe 3eba 433d 4544 2a3e 1d60 17be
00000110: 8dd7 223d fd40 673e 55ad 0a3e 968d 1cbe
00000120: 947b 2dbd ceca e93d 69df f8bd 19ac 993c
00000130: 2055 2ebe c761 1abe b3ab c0bd e1bc 6cba
00000140: a2f2 333e c476 48be 0e93 d53c 3a8c 3abd
00000150: 4bb9 103e 23e6 0f3e 6a93 8dbb 0204 35be
00000160: e444 ffbd f142 cdbd 8ad5 1e3e 32fd a6bd
00000170: b867 0bbe a3e3 3ebd 6f49 633d 2707 99bc
00000180: a527 c7bd a93d 863c 882b ce3d f050 7ebd
00000190: 16f5 fc3d 8473 5fbe 9754 96bd 1317 023e
000001a0: 5770 f1bc 4573 803c 242c 69bd 86a9 08be
000001b0: 52d1 c33d b61c 083d 4ee6 05be 3b4d 0ebe
000001c0: 5cd6 873d 198f c7bc 28a0 923d a7ad e83d
000001d0: 3583 26bb cd16 903d 7adb 543d 228e 193e
000001e0: 544c f4bc d673 b33c 4bae 5cbd 1123 b33d
000001f0: a739 8fbd df45 833c 0b32 babd d662 6cbd
00000200: ce9b 93bd 2b79 fa3b b04e 62bd 3f60 9ebd
00000210: 592d 0fbc b3bd eabd 9eb6 b1bd d6ba ca3d
00000220: e90c 593c 6fb0 083e c23a 2f3e d8a2 ac3c
00000230: 284e 813d c216 903d f5e8 ccbc 6b82 1bbd
00000240: d5fb 923c 1a0a 763d 8c67 a4bd 8a26 69bd
00000250: 3fd5 9cbc 0aef b23d dbec 59bd 9b34 933d
00000260: 4011 b1bd 5844 b93d fabd afbc 355a d93d
00000270: 2b50 36bd 7e14 17be c304 e63c 77be f5bd
00000280: 2deb c33c 19dd 7bbc ec07 e03c 5508 123d
00000290: 0f2d dfbc f8b0 94bd 6b9b 31bc 9cf4 febc
000002a0: 84c8 12be 62d8 bdbc 26af 65bd 8588 19bc
000002b0: c560 993d 069e 99bd ba0e 273e 4f3c 32bd
000002c0: 88e0 8fbd 1862 573c f2bc c43d b6e5 8abd
000002d0: 03c6 fb3d e075 86ba a362 923d 75ac 2ebc
000002e0: 5080 9f3d 0764 753d 8254 8c3d cf10 033d
000002f0: a0c4 30be 9388 3d3c ea8a 6cbe b16c 7c3d
00000300: ee89 97bd 5c40 1f3e 4ce1 563d 3c98 27be
00000310: 57f0 cebd 660a 5f3c e72d 1bbe bcf1 7abd
00000320: eaaa 49bd e680 3abe 78c7 09be 7f0f 893d
00000330: 503a 3abe fe0a 153d cabf 493d 0d43 f43d
00000340: a546 c1bd 6d39 033d 524d f73d e563 6ebc
00000350: 10e3 c8bd 0a2e d2bc f059 f13d ceda 923c
00000360: bdcd 383c 52ae 483d 3cf0 a5bd 5fde a7bd
00000370: c24a bebd f8e3 a0bd d902 7b3d 26a6 edbd
00000380: 23d5 1cbd ce98 68be 2165 c43d 06fe 82be
00000390: 0f23 d1bc 28e3 8e3d 56c0 bf3d b43b a63d
000003a0: 1659 31be d1af 803b 81c8 b9bd 2e67 683d
000003b0: 1ff8 fe3d 76a8 523d 2d42 cc3d d8f5 503d
000003c0: 4031 bbbd 82a0 223e 019b 6ebd dea7 12be
000003d0: d225 f23d 5683 88be 3c0a 993d c177 91ba
000003e0: b19e 47bc 85d5 e0bd d194 17be 3925 fabd
000003f0: 304c dc3d d410 0ebe 5f6f 1cbe 9cfa 34bd
-0.25910625 -0.21311414 -0.028571788 0.0041376785 0.17215034 -0.09599504 -0.15524322 0.022951204
-0.12703577 -0.16556177 0.032527916 -0.124325596 0.046379402 0.06436625 0.020143876 0.12398453
-0.25311303 -0.17854889 0.15355967 0.05027432 0.0050805574 -0.03524206 0.032058984 -0.17006926
0.075891286 0.065273166 -0.012590615 -0.14045541 -0.004920007 -0.08243005 -0.25361398 0.1971948
0.10228196 -0.04149839 -0.10744116 0.20608471 0.112409495 0.012019134 -0.09302008 -0.0022028158
0.0065131607 0.20769948 -0.03874075 0.0072666956 0.043491844 0.02530488 0.05943094 0.0019077612
0.0858607 0.1925112 0.029237611 -0.19852124 -0.21433793 -0.0029616046 -0.10395984 0.07074882
0.2113623 -0.06604631 0.0168739 -0.21758325 0.024787642 -0.029170696 -0.2262614 -0.23184013
-0.15104166 0.047785036 0.16627605 -0.14782758 0.039756346 0.22583385 0.13542683 -0.15288386
-0.04235418 0.11415635 -0.12151987 0.01875882 -0.1702466 -0.15076362 -0.09407749 -0.00090308307
0.17573026 -0.19576555 0.026071098 -0.045543887 0.14133184 0.14052634 -0.0043205516 -0.1767731
-0.12464312 -0.10022534 0.15511146 -0.08153762 -0.13613784 -0.04660381 0.055489954 -0.018680168
-0.097243585 0.016386824 0.10066897 -0.062088907 0.12351434 -0.2182141 -0.07340353 0.12704115
-0.029472513 0.015679965 -0.05692686 -0.13345918 0.09561409 0.033230506 -0.13076136 -0.13896649
0.06632683 -0.024360226 0.07159454 0.113612466 -0.0025407795 0.07035599 0.05196712 0.14995626
-0.029821552 0.02190582 -0.053877156 0.08746923 -0.06993418 0.016024528 -0.09091576 -0.057711445
-0.07207452 0.007643839 -0.055250823 -0.07733201 -0.008738839 -0.114619635 -0.086774096 0.098989174
0.013247707 0.13348554 0.17112258 0.021073744 0.06313735 0.07035591 -0.025013426 -0.037966173
0.017942348 0.060068227 -0.080275625 -0.05692152 -0.019144652 0.08736999 -0.0532044 0.07187768
-0.08645868 0.09046239 -0.021452893 0.10612909 -0.044510048 -0.14753911 0.028078442 -0.11999219
0.023915851 -0.015372538 0.027347527 0.035652477 -0.027243165 -0.072603166 -0.010840277 -0.031122498
-0.14334303 -0.023174468 -0.056075238 -0.009370928 0.074891604 -0.07500844 0.16314211 -0.043514546
-0.07025248 0.013145946 0.09606351 -0.06782095 0.12293627 -0.0010258518 0.0714772 -0.010661234
0.077881455 0.059909847 0.06852056 0.03199845 -0.17262506 0.011568206 -0.23099867 0.061627094
-0.07399355 0.15551895 0.052460954 -0.16366667 -0.10104435 0.013613319 -0.15154229 -0.061265692
-0.049235262 -0.18213233 -0.13454998 0.06692409 -0.18186307 0.036387436 0.04925517 0.119268514
-0.094373025 0.032037187 0.120752946 -0.014550184 -0.09808934 -0.025656719 0.11784732 0.0179266
0.011279521 0.04899437 -0.08102462 -0.08196711 -0.09291603 -0.078559816 0.061282013 -0.11603956
-0.0382892 -0.2271454 0.09589601 -0.2558443 -0.025529413 0.0697692 0.09362857 0.08116856
-0.1731914 0.003927209 -0.09071446 0.056739025 0.12449669 0.051430188 0.099735595 0.051015705
-0.09140253 0.15881541 -0.058253292 -0.14321849 0.1182362 -0.266627 0.07472655 -0.0011098312
-0.012183831 -0.109782256 -0.14802863 -0.12214131 0.10756719 -0.13873607 -0.1527686 -0.044184312

output_weights f4 [2, 100]
00000000: 50b8 4c3d ab9c 003e 1f2a cabd ffda 393e
00000010: b567 253d 5536 40bd d624 0bbd 03a5 7c3d
00000020: 5cc1 13bd 8f55 25b9 8c53 0abc 44d4 ba3c
00000030: b567 00bd 73f9 e23d c084 43be 33f5 443e
00000040: 308b 1f3a 4b21 023e 28f7 823e 8a95 403d
00000050: 558b 20bd 3b9b 9cbc 84ae e8bd fc6b 2d3d
00000060: 5097 9cbc c580 a53d a355 56be f14e 5e3c
00000070: fdc0 d03d c041 153c 221a 753d fe7f 67bd
00000080: 9b2f 8b3d e6d8 503d 1cf3 073c c1d2 f33d
00000090: 474f a5bd b546 8cbd c762 89bd 14a1 1dbe
000000a0: afd2 26be ff02 e43d 844e 563c 9bae d23d
000000b0: 7135 26be 9db0 cdbd d97f 2abd 9d47 b43d
000000c0: 9d3d 8abd 270f 8abd 4011 07bf ca2f 71be
000000d0: 69b7 acbc c971 50be b6ef 0f3e e19c 83bd
000000e0: 19d4 103f 2aef 343d ae29 babe 9904 063e
000000f0: 7b9d d93d 8758 cc3e b664 00be 5897 cebd
00000100: 7adc 9dbb 3d65 a13e 468f 52be 87ac 963d
00000110: 5e60 5f3d fd84 54be 67d7 8cbd b7ec 49be
00000120: 021b b6bd 6286 703e 2b35 c7bd 0864 f9bb
00000130: c0b9 9ebd b655 dc3d 4777 1ebf f3a6 ab3d
00000140: 7b98 5ebc 5087 963c 6fc0 7b3d 760d 17be
00000150: 1936 853d b78e 82bd 94f4 ebbc 998a 3c3e
00000160: 37c7 2a3e 2194 f3bd e0c6 543b 90fd 39be
00000170: b4c0 d43d d3ca febd 59fa 90bd 64aa 08bf
00000180: 709b 04be aed9 1a3e 5334 a4bd 1851 e73d
00000190: 0b6e 8c3e 0ddf ed3d 27fd 53bc 1bc9 18bd
000001a0: afab 2bbd 930f d73d e173 d33c 052f b9bd
000001b0: a8bd d73d f6ec f2bc 1751 043e 5c70 5cbe
000001c0: c9ab c83c 9cd8 afbc ec5e 463e 2d7f b03e
000001d0: 8c36 92bd 01ac 93bc a386 c1bc a423 333d
000001e0: d9d1 7e3d 5521 8d3e 2cc7 8abd b8c1 e0bc
000001f0: d94a fe3c 707a 2cbd a2f4 b73d fba8 1ebd
00000200: b916 4dbb d574 163e a5e7 74bd 229d 4bbd
00000210: 965b a3be 283d 97be a748 a13d f6b5 793e
00000220: d066 93bd 5ff7 c43d ee79 eb3d a4d6 0e3e
00000230: 7f6e 02bf e1dc 023e 59a2 1dbe 4cc9 db3d
00000240: 5786 4dbe 78a6 84bd b9ff c5bc 3796 a9bd
00000250: 2ff8 333d 0f8f 5fbd f096 1ebd a97f 2f3d
00000260: 895a 473d 6d8e cbbc a4e4 1dbe 7269 c5bd
00000270: 2d89 0abe f931 f2bd 1d96 93bd 1af9 15be
00000280: a7d9 16bd 6c8f ed3a ad7c 11be 05f5 f6bc
00000290: 010e 43bf 25ee 7fbc 1e62 bebd 31f1 1fbd
000002a0: 3fe3 0bbd f87a abbd ca81 c13d 9445 a23c
000002b0: 71a8 333d b999 b73d d69c 09be cf4a 953e
000002c0: 7221 ae3b cc38 77bc 8c87 313d df2c c43d
000002d0: 4648 de3d cafa 13be 2abd 2bbd 9972 6fbd
000002e0: 7f1f a9bc 22e7 a4bd d537 3c3e 3ce4 8d3d
000002f0: 5baf 27be b68a 4fbe fac2 263d 9696 4cbe
00000300: 2fc3 e1be 286d aa3c b524 d7bd 10c3 6fbd
00000310: cec3 0abd a37f 633e 93a8 213e ca93 04be
0.04998046 0.12559764 -0.09871315 0.18149947 0.040382106 -0.046926815 -0.033970676 0.061680805
-0.036073074 -0.000157675 -0.008442771 0.022806294 -0.031348903 0.11082735 -0.19093609 0.19234161
0.0006086109 0.12708013 0.2557919 0.04701761 -0.039195377 -0.019116988 -0.11361411 0.04233931
-0.01911512 0.080812015 -0.20931105 0.013568626 0.101930596 0.009109914 0.059839375 -0.056518547
0.067961894 0.0509881 0.008297708 0.119054325 -0.080717616 -0.06849424 -0.067082934 -0.15393478
-0.16291307 0.11133384 0.013080243 0.102872096 -0.16231324 -0.10043452 -0.04162583 0.08802722
-0.06750033 -0.06741171 -0.52760696 -0.23553386 -0.02108355 -0.20355906 0.14056286 -0.06426407
0.56573635 0.044173397 -0.36359924 0.13087691 0.1062574 0.3991129 -0.12538418 -0.1008746
-0.0048175426 0.3152255 -0.20562467 0.07357126 0.054535262 -0.20753856 -0.06877022 -0.19719206
-0.0889187 0.23488763 -0.09726938 -0.0076108016 -0.07750273 0.107585356 -0.6190075 0.083814524
-0.013586159 0.018375069 0.061462816 -0.14751229 0.06504459 -0.06374877 -0.028803147 0.18412246
0.16677557 -0.11893488 0.0032467172 -0.18163133 0.10388318 -0.124410294 -0.07079 -0.53384995
-0.1294992 0.151221 -0.080177926 0.11294764 0.27427706 0.11614809 -0.012938774 -0.037301164
-0.041911777 0.105010174 0.025812091 -0.090421714 0.10534221 -0.029654007 0.12921558 -0.21527237
0.024495976 -0.021465592 0.19372147 0.34472027 -0.0713931 -0.018026354 -0.02362377 0.04373516
0.062211845 0.27564493 -0.0677627 -0.027436122 0.03104155 -0.042108953 0.08982207 -0.03873537
-0.0031294061 0.14693005 -0.059791226 -0.0497104 -0.31905812 -0.29538846 0.078751855 0.24385819
-0.07197344 0.09617495 0.114978656 0.13949066 -0.50949854 0.12779571 -0.15393962 0.10731754
-0.20070778 -0.06477064 -0.02416979 -0.08280604 0.04393786 -0.05457979 -0.038718164 0.042846356
0.048670325 -0.024848187 -0.1541925 -0.09639253 -0.13528891 -0.11825938 -0.07206366 -0.14645806
-0.036828663 0.0018124408 -0.14207716 -0.030146131 -0.76193243 -0.015620743 -0.09296058 -0.039048377
-0.034152266 -0.08373064 0.094485834 0.019808568 0.04386181 0.08964867 -0.13438734 0.29158637
0.0053140456 -0.015089225 0.04334216 0.09578871 0.10853629 -0.14451137 -0.041928448 -0.0584589
-0.020644901 -0.080518976 0.18380673 0.06928298 -0.16375487 -0.20267758 0.040713288 -0.19979319
-0.44094226 0.020804003 -0.10505048 -0.058535635 -0.03387814 0.22216658 0.15786962 -0.12947002
