models/twobitallrandom.pt (torch, 43404 bytes, 3 tensors)

input_weights f4 [100, 2]
0	0x3d9e7cb1	0.07738627
1	0xbd578992	-0.05262143
2	0xbe337edd	-0.17528863
3	0xbd603eeb	-0.054747503
4	0x3d1ecc12	0.038768835
5	0x3d79418f	0.060853537
6	0x3df2016f	0.1181668
7	0x3d98af6e	0.074553356
8	0xba96d492	-0.0011507443
9	0xbe0b6fc3	-0.13616852
10	0xbe0f5293	-0.13996343
11	0xbded48ab	-0.11586126
12	0xbe0a4e08	-0.13506329
13	0xbdaf049c	-0.08545801
14	0x3bda4c97	0.0066619623
15	0x3d0b0c55	0.033947308
16	0xbdcc9ff4	-0.09991446
17	0x3e0dd780	0.13851738
18	0x3e1e976e	0.15487453
19	0xbdd34835	-0.10316507
20	0xbcb09897	-0.021557136
21	0x3d9dc15a	0.077028945
22	0x3e128923	0.14310126
23	0x3d2655a0	0.040609002
24	0xbd1924cc	-0.037388608
25	0x3dc5246e	0.09626089
26	0xbaf3bb75	-0.0018595295
27	0xbdb09d54	-0.08623758
28	0x3bb5b88f	0.0055456827
29	0x3e68d59d	0.22737737
30	0x3d9cb766	0.07652168
31	0x3c8b8aaf	0.017033903
32	0xbdf714e2	-0.1206453
33	0x3c884d83	0.016638523
34	0xbdba24da	-0.0908906
35	0xbdbf7112	-0.09347738
36	0x3d9e8639	0.07740445
37	0xbbe53dea	-0.006995906
38	0x3dbe6fc3	0.092986606
39	0xbde66e85	-0.11251549
40	0xbd6995aa	-0.057027496
41	0xbdb478ef	-0.08812129
42	0xbe64f29a	-0.2235817
43	0x3d84fc73	0.06493463
44	0xbdc3e354	-0.09564844
45	0xbd18f51f	-0.03734314
46	0xbe008143	-0.1254931
47	0x3bd8a71b	0.0066117174
48	0xbdc0cafe	-0.09413718
49	0xbe2ad157	-0.1668142
50	0xbd39abf4	-0.045330003
51	0xbe3b45b3	-0.18288307
52	0xbd2c2083	-0.042023193
53	0x3d6eae9a	0.05827198
54	0x3dc799f3	0.0974616
55	0x3ccac687	0.024752868
56	0xbd8b56d3	-0.0680367
57	0xbd3cdfcf	-0.046111878
58	0xbd8aab7f	-0.067709915
59	0xbdd13b60	-0.10216403
60	0xbccbff63	-0.024902051
61	0x3d37b7cb	0.044853013
62	0xbdb07ed9	-0.08617944
63	0xbe4b39ad	-0.1984622
64	0x3d1136cc	0.03545265
65	0xbd070c2b	-0.03297059
66	0xbe05344f	-0.13008235
67	0xbae563b3	-0.0017501026
68	0x3e1443ed	0.14479037
69	0x3d363e4f	0.044493016
70	0xbdf7bba7	-0.12096339
71	0x3e533b97	0.206282
72	0x3d39a907	0.045327213
73	0x3d2888fb	0.04114626
74	0xbd8b824f	-0.06811964
75	0x3e11c830	0.14236522
76	0x3e4b95ef	0.19881414
77	0x3d2112ed	0.03932469
78	0xbcec7d13	-0.028868234
79	0xbd745292	-0.059649058
80	0xbc49e6cb	-0.012323092
81	0xbe07a93a	-0.13248149
82	0x3db6baca	0.08922346
83	0xbdf55400	-0.11978912
84	0xbcdddbf8	-0.027082428
85	0x3d4c78da	0.04991994
86	0xbb1d7a00	-0.0024029016
87	0x3cbc354c	0.022974633
88	0xbe23540f	-0.15950035
89	0xbdd10092	-0.10205187
90	0xbe4d0e4b	-0.20024984
91	0xbde02d85	-0.10946182
92	0x3d5a6762	0.05332125
93	0x3d3ed864	0.046593085
94	0xbd83c430	-0.06433904
95	0xbd5b7d10	-0.053586066
96	0x3d823840	0.06358385
97	0xbe005563	-0.12532572
98	0x3e20c13f	0.15698718
99	0x3df0021b	0.117191516
100	0xbdada37d	-0.084784485
101	0x3dc460eb	0.09588798
102	0x3e125c87	0.14293109
103	0xbd0df0d4	-0.0346535
104	0x3d39d123	0.045365464
105	0x3e41155c	0.18855804
106	0x3e0cf20e	0.13764212
107	0x3d8162c2	0.06317665
108	0x3c81a064	0.01582355
109	0xbd99ad5a	-0.07503767
110	0x3db03b35	0.08605043
111	0xbd80b9a4	-0.06285408
112	0xbe94bbb6	-0.29049462
113	0xbca274fa	-0.01983117
114	0x3d556b92	0.05210454
115	0x3d6ca030	0.057769954
116	0x3df8b73b	0.121443234
117	0x3ce18567	0.027529432
118	0xbd90f983	-0.070788406
119	0xbda28f42	-0.079374805
120	0x3e19f69a	0.15035477
121	0xbe2d10c7	-0.16900931
122	0x3d8c570f	0.068525426
123	0xbe07d1d3	-0.13263635
124	0x3d8c202c	0.06842074
125	0x3d497554	0.04918416
126	0x3e55eccf	0.20891117
127	0x3d82dac7	0.06389385
128	0xbe57f35a	-0.21088925
129	0x3e259e6c	0.16173714
130	0xbe25d673	-0.16195087
131	0x3d3eca9f	0.046579953
132	0xbd816762	-0.06318547
133	0xbd969c8a	-0.07354076
134	0x3e3089fa	0.17240134
135	0xbd6d8557	-0.05798849
136	0x3dc8a1f5	0.09796516
137	0xbda5939d	-0.080847956
138	0x3deeb56f	0.116556995
139	0xbd7c0c93	-0.06153543
140	0xbcddc3a2	-0.027070824
141	0xbcb14ee8	-0.02164407
142	0x3d3665c3	0.04453064
143	0xbdc44656	-0.09583728
144	0xbd0e949f	-0.034809705
145	0x3da311ec	0.07962403
146	0xbccda1cf	-0.02510157
147	0x3e028b53	0.1274846
148	0x3d3825de	0.044957988
149	0xbd56292d	-0.052285362
150	0x3e0ccac6	0.13749227
151	0x3c680805	0.014162068
152	0x3dc36953	0.095415734
153	0xbcfd7aa5	-0.03094227
154	0x3dece0e5	0.11566333
155	0xbd7abb02	-0.0612135
156	0xbe1a4d10	-0.1506846
157	0xbda0a12b	-0.0784324
158	0xbde0a527	-0.10969
159	0x3d39801c	0.04528819
160	0xbdd0f677	-0.102032594
161	0x3db06516	0.086130306
162	0xbd87ccdf	-0.06630873
163	0xbe1590ce	-0.1460602
164	0xbd082897	-0.033241834
165	0xbd468861	-0.048469905
166	0xbd3ca3d9	-0.046054695
167	0x3b97e807	0.004635814
168	0xbdc0e853	-0.09419312
169	0xbbd2a7af	-0.006428681
170	0x3caf66bf	0.021411298
171	0xbe28ca33	-0.16483383
172	0x3a5696ed	0.0008185942
173	0xbd82c2b0	-0.0638479
174	0x3ddce618	0.107860744
175	0x3c4dbb8a	0.01255692
176	0x3ca9d2b3	0.020730352
177	0x3e116c33	0.14201431
178	0x3e3e100e	0.18560812
179	0xbdd7626b	-0.105168186
180	0x3c377cf7	0.0111992275
181	0x3e8a33c4	0.2699262
182	0x3cf0f843	0.029415255
183	0x3d325958	0.043542236
184	0x3e80d13d	0.25159636
185	0xbdf15925	-0.11784581
186	0x3e1785d1	0.1479714
187	0x3d07b2c5	0.033129472
188	0x3bb5d114	0.0055486057
189	0xbe25cc59	-0.16191234
190	0x3da2022d	0.07910571
191	0xbd8a5bfc	-0.06755826
192	0xbde293bb	-0.110633336
193	0x3e270e13	0.16313963
194	0xbd820716	-0.06349008
195	0xbdd419e5	-0.103565015
196	0xbd3a8f39	-0.045546744
197	0xbe12da82	-0.14341167
198	0xbd51ea17	-0.051248636
199	0xbd15ec2f	-0.036602195

recurrent_weights f4 [100, 100]
0	0x3c56a8ea	0.013101796
1	0x3dd7d4bd	0.105386235
2	0x3d5089c7	0.050912645
3	0xbb9099cb	-0.004412865
4	0xbcf919e3	-0.030407852
5	0x3d18fcc7	0.037350442
6	0xbd2dd2f8	-0.042437524
7	0xbe02428b	-0.12720697
8	0x3dbb3bc3	0.09142258
9	0x3d875c45	0.06609396
10	0x3db737f2	0.089462176
11	0xbe14b4db	-0.14522116
12	0xbd9b8cb3	-0.075951956
13	0xbd592a6a	-0.053018965
14	0x3dd22bd5	0.102622665
15	0x3dc52414	0.09626022
16	0x3d883137	0.06650012
17	0xbd5abc1f	-0.053402063
18	0x3c2ff15f	0.0107387
19	0xbe352e6c	-0.1769349
20	0x3d9db1e3	0.07699945
21	0x3a8afa8b	0.0010603232
22	0xbbc40008	-0.005981449
23	0xbc936aae	-0.017995205
24	0xbbabfcae	-0.0052486276
25	0xbe0462fc	-0.12928385
26	0xbd1c350d	-0.03813653
27	0x3d8452a7	0.06461077
28	0x3e1a8d2d	0.15092917
29	0xbc9e5f12	-0.019332442
30	0x3daecb55	0.08534876
31	0x3e53dadb	0.20688955
32	0xbc96cade	-0.018407281
33	0x3c8efeb4	0.017455436
34	0xbc1aa907	-0.009439713
35	0x3d2891e7	0.04115477
36	0x3d9c6b8b	0.076377
37	0x3da362d1	0.07977832
38	0x3e11bdb5	0.14232524
39	0xbdd553cb	-0.10416373
40	0x3dce97e3	0.10087564
41	0x3d22162f	0.039571937
42	0x3e142977	0.14468943
43	0xbdca487a	-0.09877105
44	0x3e16408e	0.14673063
45	0x3db37fa6	0.087645814
46	0xbdef8020	-0.1169436
47	0xbdd017d0	-0.10160792
48	0xbe19cce3	-0.15019564
49	0xbde6a76a	-0.112624004
50	0x3dba08fa	0.090837434
51	0x3d895530	0.06705701
52	0xbc430940	-0.011904061
53	0x3d7a7f7b	0.06115673
54	0xbc26bba8	-0.010176577
55	0xbd756e73	-0.059919786
56	0x3cd53c20	0.026029646
57	0xbd4992fc	-0.04921244
58	0xbd9f5707	-0.07780271
59	0x3cdd0305	0.026978979
60	0x3daa8069	0.083252735
61	0x3e003c81	0.1252308
62	0xbdff2167	-0.12457543
63	0x3cd4d668	0.025981143
64	0x3e159297	0.14606701
65	0x3dba72d9	0.09103937
66	0xbe65624a	-0.22400776
67	0x3e2bf397	0.16792141
68	0x3db4b8f2	0.08824338
69	0xbd875d19	-0.06609554
70	0xbe3ddd5f	-0.18541478
71	0xbda8e645	-0.082470454
72	0x3bca759a	0.00617857
73	0xbd1a0144	-0.037598863
74	0x3e1e077d	0.15432544
75	0x3d83a86f	0.064286105
76	0xbce14a03	-0.027501112
77	0x3daba4a7	0.08381014
78	0x3ba2eda3	0.004972176
79	0xbcb709c7	-0.02234353
80	0xbc88a550	-0.01668039
81	0x3e23aedd	0.15984674
82	0xbb1ae387	-0.0023634152
83	0xbd86abcf	-0.06575739
84	0x3d8bdb0c	0.06828889
85	0xbd9c536a	-0.076330975
86	0x3ce7c555	0.028292337
87	0x3df652c0	0.12027502
88	0x3dd27005	0.10275272
89	0x3ddc74ad	0.10764442
90	0xbd44df1c	-0.048064336
91	0xbcb2220e	-0.021744754
92	0x3e171c98	0.14757001
93	0xbd84b283	-0.06479361
94	0xbd03f066	-0.032211684
95	0x3e355a6f	0.17710279
96	0x3e123483	0.14277844
97	0xbd8158bd	-0.063157536
98	0xbd7f5bca	-0.062343396
99	0xbcdb3a5a	-0.026761223
100	0x3c8b15cb	0.016978165
101	0xbd066722	-0.0328132
102	0x3e67b378	0.22627056
103	0x3cc8af44	0.024497636
104	0xbdf6965f	-0.120404
105	0x3dd4ed50	0.10396826
106	0xbe6979a0	-0.22800303
107	0x3ca5e83f	0.020252345
108	0xbdca30dd	-0.09872601
109	0x3d3f3215	0.04667862
110	0xbd4f2ce7	-0.05057993
111	0x3e2a2f95	0.16619714
112	0x3dcbb580	0.09946728
113	0xbdcdb9e7	-0.10045224
114	0xbbc9542f	-0.0061440687
115	0x3e18af34	0.14910585
116	0x3cfc3bc3	0.030790215
117	0xbe0d47db	-0.13796942
118	0x3d479709	0.048728023
119	0xbd26983f	-0.040672537
120	0xbd7cb76b	-0.06169836
121	0x3e237d49	0.15965761
122	0xbd23f710	-0.04003054
123	0x3bb5a995	0.0055438974
124	0xbdd8ee1a	-0.10592289
125	0x3d820d65	0.06350211
126	0xbdc76c18	-0.09737414
127	0xbceeb193	-0.029137408
128	0x3d8d62a8	0.06903583
129	0x3d8a03d0	0.067390084
130	0x3d884721	0.06654192
131	0xbdd91388	-0.105994284
132	0xbc840335	-0.01611481
133	0xbce47b53	-0.027890837
134	0xbc8809e5	-0.01660628
135	0x3e0d4aaf	0.13798021
136	0x3e67bd75	0.22630866
137	0x3d61fbc0	0.055171728
138	0x3cc78833	0.024356937
139	0xbe1d9d3d	-0.15392013
140	0xbaa69ba6	-0.0012711182
141	0xbde98ba5	-0.11403588
142	0x3e11f478	0.14253414
143	0x3d870ce4	0.065942556
144	0x3e5a55f3	0.2132185
145	0x3d2dec83	0.042461883
146	0xbccb1dd1	-0.024794491
147	0x3de873ca	0.1135021
148	0x3d4bda19	0.04976854
149	0x3d42ad62	0.047528632
150	0xbe1000b6	-0.14062771
151	0xbb58eac3	-0.0033098913
152	0x3c345e3e	0.011008797
153	0x3d9dbb4f	0.07701742
154	0xbdc4f327	-0.0961669
155	0xbd7c0d1d	-0.061535943
156	0x3d6c22ff	0.057650562
157	0x3d2f7624	0.042837277
158	0x3da1c1f6	0.07898323
159	0x3db0489d	0.086076
160	0x3da49a7e	0.080372795
161	0x3ddf5705	0.109052695
162	0xbe242644	-0.16030222
163	0x3da76538	0.08173603
164	0x3d999c60	0.07500529
165	0x3d5db7c8	0.054130346
166	0x3da61f3e	0.08111428
167	0x3dc07b56	0.093985245
168	0x3dad98c1	0.08476401
169	0x3d027ad3	0.031855416
170	0x3da61a70	0.08110511
171	0xbd5f8fb3	-0.0545804
172	0xbccf1bb0	-0.025281757
173	0xbd2ac407	-0.041690852
174	0xbdddcdbb	-0.108302556
175	0x3c6d952b	0.014500896
176	0x3de96dab	0.11397871
177	0xbd2935b2	-0.041310973
178	0x3cef89d3	0.029240524
179	0xbc324169	-0.010879853
180	0x3d0f8e02	0.03504754
181	0x3e7526f2	0.23940638
182	0xbce5eb18	-0.028066203
183	0x3e1061cb	0.14099805
184	0x3db276c1	0.08714057
185	0x3dadb702	0.084821716
186	0xbca8ac47	-0.02058996
187	0x3d41f2dd	0.047350753
188	0x3ddf75f8	0.10911173
189	0xbc2d08ae	-0.010561151
190	0x3e05d905	0.13071068
191	0xbe6800dd	-0.2265658
192	0xbe0a2d13	-0.13493757
193	0x3e4a86d3	0.19777994
194	0xbd9a4caf	-0.075341575
195	0x3dba5042	0.09097339
196	0x3defcbbb	0.117087804
197	0xbd876b0f	-0.06612217
198	0xbd6044ed	-0.054753233
199	0x3e0bc31f	0.13648652
200	0xbcac3fce	-0.021026518
201	0xbd858e7b	-0.065213166
202	0xbc9a6051	-0.018844755
203	0xbd0d7c6e	-0.034542494
204	0xbd228b53	-0.03968365
205	0x3e373a33	0.17893295
206	0xbda1fa4b	-0.07909068
207	0x3d0532e1	0.032519225
208	0x3d3dcb67	0.046336558
209	0x3e65d0bb	0.22442906
210	0xbe2d4aeb	-0.1692311
211	0xbe216bc0	-0.1576376
212	0x3de93c38	0.11388439
213	0xbe7d4593	-0.24733572
214	0xbd8f6787	-0.07002168
215	0x3d14956a	0.036275305
216	0x3e131b3d	0.1436586
217	0x3d808a3f	0.06276368
218	0x3cc2f750	0.023799568
219	0x3e2e69e9	0.17032589
220	0xbe28a008	-0.16467297
221	0xbd0397cb	-0.032127183
222	0x3dc93ae8	0.098256886
223	0x3c5242f7	0.0128333485
224	0xbd00997f	-0.031396385
225	0x3d7ba593	0.0614372
226	0xbdd870e7	-0.105684094
227	0x3d95f8bb	0.07322832
228	0xbd363042	-0.044479616
229	0xbe79cac3	-0.24393754
230	0xbcda0e95	-0.026618281
231	0xbd619f97	-0.055083837
232	0x3d29f8a4	0.041496888
233	0xbe4a5fbf	-0.19763087
234	0xbd8f390c	-0.06993303
235	0xbd4be22b	-0.049776237
236	0x3e08e181	0.13367273
237	0xbda6c8fa	-0.08143802
238	0x3cd4c0b2	0.02597079
239	0xbdfee367	-0.12445717
240	0xbe27941b	-0.16365092
241	0x3da40cc7	0.080102496
242	0x3d357b67	0.04430714
243	0x3d701ffb	0.05862425
244	0xbcf50143	-0.029907828
245	0xbe0a399d	-0.1349854
246	0x3d51891d	0.051156152
247	0xbd61d157	-0.055131283
248	0xbde75a3d	-0.112965085
249	0x3e08d937	0.13364111
250	0x3daffc38	0.08593029
251	0xbd3d2967	-0.046182062
252	0xbbdefae8	-0.0068048127
253	0xbddbafa7	-0.107268624
254	0xbd8a7308	-0.06760222
255	0x3dce41cb	0.10071143

output_weights f4 [2, 100]
0	0xbc9a32a3	-0.018822974
1	0xbe1cb53c	-0.1530351
2	0xbcc0e81b	-0.023548177
3	0xbe011860	-0.12606955
4	0x3dc43ee2	0.095823064
5	0x3d9843d3	0.074348114
6	0xbd9789bf	-0.0739932
7	0xbd850644	-0.06495336
8	0xbd749b0a	-0.05971817
9	0x3dbd766e	0.09251104
10	0xbda7583e	-0.08171128
11	0x3dc66cd1	0.09688724
12	0x3e39d524	0.18147713
13	0xbd232f1b	-0.039839845
14	0xbdd86e43	-0.10567906
15	0xbc95011d	-0.018189007
16	0x3d0604d4	0.03271945
17	0x3e09594b	0.13412969
18	0x3c6851e3	0.01417968
19	0xbb4559cc	-0.0030113338
20	0xbb2fb569	-0.002681101
21	0x3d218e72	0.039442487
22	0x3caef920	0.021359026
23	0xbc8fd14e	-0.017555859
24	0x3d35fd97	0.044431295
25	0xbc9202b0	-0.017823547
26	0xbd27ead7	-0.040995445
27	0xbd3432b1	-0.043993656
28	0xbdb4a583	-0.08820631
29	0x3d7abbb8	0.06121418
30	0xbc377c85	-0.011199121
31	0xbe483013	-0.19549589
32	0x3df6d858	0.12052983
33	0x3dc0d501	0.09415627
34	0xbdeaefd2	-0.11471523
35	0x3ca907f5	0.020633677
36	0x3dee3f0f	0.11633121
37	0xbd3f43ff	-0.046695706
38	0x3bbe68df	0.0058108415
39	0x3d36aac7	0.04459646
40	0xbd51ce7d	-0.051222313
41	0xbc2bb893	-0.010481018
42	0x3dea46c3	0.11439278
43	0x3dd86e57	0.10567921
44	0x3d0b9312	0.034075804
45	0xbd9adc17	-0.0756151
46	0xbdf3e235	-0.1190838
47	0xbd0da18b	-0.034577888
48	0x3c6d59b7	0.014486722
49	0xbd8d6919	-0.069048114
50	0xbd87de84	-0.06634238
51	0x3dfca90b	0.1233693
52	0xbd557382	-0.05211211
53	0x3e1a8ea9	0.15093483
54	0xbc44fa7c	-0.012022611
55	0xbcb16084	-0.021652468
56	0xbe09fdd7	-0.13475738
57	0x3d9d2197	0.076724224
58	0xbe15154d	-0.14558907
59	0x3d55cf02	0.05219937
60	0x3c893cb1	0.016752573
61	0xbc446523	-0.0119870035
62	0x3e562ca0	0.2091546
63	0xb8ea6218	-0.00011176261
64	0x3d9de681	0.07709981
65	0x3e275642	0.16341498
66	0xbdd49fd2	-0.10382046
67	0x3d4e7428	0.050403744
68	0x3dff2efb	0.12460133
69	0xbe143973	-0.1447504
70	0x3da595c6	0.08085208
71	0x3d5704b8	0.052494735
72	0xbd6d63dd	-0.057956565
73	0xbcb0c449	-0.021577971
74	0x3d891cae	0.06694923
75	0x3d9a3bde	0.0753095
76	0xbe17b9d6	-0.14816985
77	0xbdb578d2	-0.08860935
78	0x3daa9458	0.083290756
79	0x3d16fd36	0.036862575
80	0x3bea0a33	0.007142329
81	0xbc0ff1ef	-0.008785709
82	0xbb47b001	-0.0030469897
83	0x3cddd93d	0.027081126
84	0x3db3bb86	0.08776002
85	0x3ccddc6f	0.025129525
86	0xbdd6fb17	-0.1049711
87	0x3d9b77e5	0.075912274
88	0xbe2e7c3e	-0.17039582
89	0x3d3b1dd3	0.04568274
90	0x3e041bb6	0.12901196
91	0xbd4d535a	-0.05012832
92	0xbdc29f12	-0.095029965
93	0x3d676303	0.05649091
94	0x3dc6aa03	0.09700396
95	0xbe9035b3	-0.2816597
96	0xbce04f5d	-0.027381593
97	0x3df2d403	0.11856844
98	0xbd52a6a5	-0.051428456
99	0xbd53f473	-0.051746797
100	0xbe1fb0cc	-0.15594786
101	0x3b8c3220	0.0042784363
102	0x3d9b5036	0.075836584
103	0x3ded85e8	0.11597806
104	0x3d91370d	0.07090578
105	0x3d4ef777	0.05052897
106	0x3b408407	0.002937557
107	0x3aa9de98	0.0012960015
108	0xbd761532	-0.060078807
109	0x3e3c0a41	0.18363287
110	0xbdc0fb67	-0.09422951
111	0x3e1caa2f	0.15299295
112	0xbb0e48c9	-0.0021710864
113	0x3df372df	0.11887144
114	0x3c5b383b	0.013380106
115	0x3e060be0	0.13090467
116	0x3aa32615	0.0012447262
117	0xbe703113	-0.2345622
118	0x3de5f3d7	0.112281494
119	0xbd31662f	-0.04331034
120	0x3dca25a5	0.098704614
121	0x3cfe3c1d	0.031034524
122	0xbc70c615	-0.014695664
123	0xbca7b32c	-0.020471178
124	0xbd93918c	-0.07205495
125	0x3e086a66	0.13321838
126	0x3d5088d2	0.050911732
127	0xbe0cd633	-0.13753586
128	0xbc224d2a	-0.009906093
129	0x3d8bc85b	0.06825324
130	0x3e56ac82	0.20964244
131	0xbd28c5cb	-0.041204255
132	0x3cbaf78b	0.022823116
133	0x3e03ce9d	0.12871785
134	0x3da74437	0.08167308
135	0x3d0f081e	0.03491985
136	0xbc9945be	-0.018710013
137	0x3cafaa37	0.02144347
138	0x3c6e578f	0.014547243
139	0x3d96f2de	0.07370542
140	0xbd2378b1	-0.039910022
141	0xba421631	-0.00074038195
142	0xbc48341b	-0.012219454
143	0xbda922a6	-0.08258562
144	0x3d4c6d54	0.04990895
145	0x3d28128f	0.041033324
146	0xbe058b1b	-0.13041346
147	0xbcf0a465	-0.029375264
148	0xbd5d8d08	-0.054089576
149	0xbc5876db	-0.013211931
150	0x3db11da4	0.086482316
151	0xbd3b00d1	-0.045655075
152	0x3c3c4142	0.011490168
153	0xbd8cb738	-0.06870884
154	0xbdb35d4d	-0.0875803
155	0xbcab54be	-0.020914432
156	0x3cf09d55	0.029371897
157	0xbdcef46a	-0.10105212
158	0x3e33961e	0.17537734
159	0xbcf0edf3	-0.029410338
160	0xbbcdd657	-0.006281655
161	0xbd27f45f	-0.041004535
162	0xbdc296fa	-0.09501453
163	0x3d0fea9a	0.035135843
164	0xbcc8d39c	-0.024514966
165	0xbdc7b0d3	-0.097505234
166	0x3d9a4af6	0.07533829
167	0x3dad5c39	0.08464856
168	0x3e106dbe	0.14104363
169	0xbde16ce7	-0.110070996
170	0x3e0fc491	0.14039828
171	0xbdf9338d	-0.12168036
172	0x3cf13b5b	0.029447248
173	0x3c4132a9	0.0117918635
174	0x3d9c1ceb	0.07622703
175	0xbde29eaa	-0.11065419
176	0xbc6728bd	-0.014108834
177	0xbca17051	-0.019706877
178	0xbe031b92	-0.12803486
179	0x3df02fa7	0.11727839
180	0xbd431280	-0.047625065
181	0xbc5db3c3	-0.013531628
182	0xbd27eedb	-0.040999275
183	0xbd8a522f	-0.067539565
184	0x3e145320	0.14484835
185	0x3d227d87	0.039670493
186	0x3ddb57dd	0.10710118
187	0x3e2622b1	0.16224171
188	0x3e2b5a6f	0.16733716
189	0xbd0c0f8b	-0.03419451
190	0xbdd5a96b	-0.104327045
191	0xbd7a70ea	-0.06114284
192	0xbd3a9ff6	-0.045562707
193	0x3e5610b0	0.20904803
194	0xbdfcb8fa	-0.12339969
195	0x3d854837	0.065079145
196	0x3dba9e2c	0.091122
197	0xbcdf4d98	-0.02725868
198	0xbd92d310	-0.07169163
199	0x3dce13cf	0.10062372
