models/twobit1000seed66.pth (torch, 43411 bytes, 3 tensors)

input_weights f4 [100, 2]
000000 b4 61 04 3e 75 3e 20 be a4 54 3e be cd 2e 8b 3d
       0.12927896 -0.15648825 -0.18586975 0.06796036
000010 9b 94 77 be b8 f2 2e 3e 66 f9 e6 3d fe 25 99 bd
       -0.24177782 0.17084777 0.11278038 -0.074779496
000020 90 3b 63 be 9d ad 9a 3d ab b1 c4 3e 2f af e3 bd
       -0.2219069 0.07552645 0.384168 -0.11117398
000030 af f3 4a 3e 9a 6a 44 3e a7 cd d4 be 59 6c dd 3a
       0.1981952 0.1918129 -0.4156315 0.0016893252
000040 ca b1 ea be 97 14 74 3d 24 45 bb 3e b1 9c 8c bd
       -0.45838767 0.05958995 0.36576188 -0.06865824
000050 4b b3 2f be 6f 72 e2 3e 5d 11 03 3c d2 dc b5 3e
       -0.17158239 0.4422793 0.007999745 0.35520035
000060 5d 85 ec bd ac 45 cf be af f7 1f bd 4d cd 9b be
       -0.115488745 -0.40482843 -0.03905457 -0.3043007
000070 c5 b5 5b 3d ca 4d 4e bd 0d 51 43 3e 70 6a dc 3e
       0.053640146 -0.050367154 0.19073887 0.43049955
000080 61 d4 5f bd 0d 18 0d 3e 24 a5 17 3e 80 99 97 be
       -0.0546459 0.13778706 0.1480909 -0.296093
000090 24 d5 2f be 94 ca 3f 39 cd 2f a3 3d 01 c4 9c 3e
       -0.1717115 0.00018290646 0.07968102 0.3061829
0000a0 0f a9 be bd 14 69 0a 3e 91 15 0e bc d1 72 cf be
       -0.09309589 0.13516647 -0.008672134 -0.40517285
0000b0 cf 6b 1c 3d 78 b9 3b bf ba 29 00 3e cb 76 f4 bc
       0.03818875 -0.7332988 0.12515917 -0.029841801
0000c0 51 e1 3b bd 25 37 0d bf 9a f3 14 3d f7 d9 c3 be
       -0.045869175 -0.5516227 0.03636513 -0.3825223
0000d0 69 68 42 be 40 01 9a bd 7b da 1b be db 93 02 3f
       -0.18985142 -0.0751977 -0.15220062 0.5100686
0000e0 c3 dd 20 3e d0 47 f9 bc 9e f2 02 3f e6 3f 2b 3e
       0.15709595 -0.03042975 0.51151454 0.16723594
0000f0 21 b3 f0 bd bd ee c6 3e 08 21 71 3d ce 1a 30 3e
       -0.11752916 0.38854018 0.05886939 0.17197725
000100 9f d6 43 be b3 d5 4d 3e 6b 7d 66 be 49 d4 e2 bb
       -0.1912484 0.20101051 -0.2250878 -0.006922279
000110 47 97 7d 3e f5 b6 45 3e ef 7a ec bc ca 4b 8a be
       0.24764739 0.19308074 -0.028867213 -0.27010947
000120 ca b4 b2 bd 2b 8d be 3d 1a b3 dd bd 0b e0 00 3f
       -0.08725889 0.093042694 -0.108251765 0.5034186
000130 58 f9 22 bf d7 8b 6a 3d 5b 5e 41 3e b8 d1 65 be
       -0.6366172 0.057262268 0.1888365 -0.22443283
000140 46 78 bd be df 9b 0f bd 0b ab c4 3b 05 b6 66 bf
       -0.37005824 -0.03506076 0.006001835 -0.9012149
000150 42 ab 1b 3e 33 ce 5c be 8b 04 53 3e fa 27 f5 bb
       0.15202048 -0.21563034 0.20607202 -0.007481572
000160 3e b3 90 3e 99 ca 1d bb 96 4b 94 bd 65 90 e1 be
       0.2826175 -0.0024077056 -0.072409794 -0.44055477
000170 78 cb 9d 3c 9d 48 eb be bd 69 ac be 38 5c c6 bc
       0.01926206 -0.45953837 -0.33674422 -0.024213895
000180 e3 ff 14 be 70 cb 9f 3e 9e b7 0e be de ec 7c 3e
       -0.14550738 0.31209898 -0.13937232 0.24699733
000190 e0 c5 a3 be 67 d1 d5 3d af 85 90 3e ac 3b 40 be
       -0.31986904 0.10440331 0.28226992 -0.18772763
0001a0 b0 14 7d be b3 ad 68 3e 28 ed 81 bd 6b bf 91 3d
       -0.24714923 0.22722511 -0.06344062 0.07116588
0001b0 82 4a fc 3b 76 fa de 3d dc 0c 8f 3d 41 fb 03 3f
       0.0076993117 0.108876154 0.069848746 0.5155526
0001c0 d7 66 e4 be 6b 05 71 bc bd 4d 83 3e a1 02 ad 3e
       -0.4460971 -0.014710764 0.25645247 0.33791068
0001d0 93 de 11 3f b0 7f f3 bd 15 48 de bd 12 26 fe 3d
       0.56980246 -0.11889589 -0.10853592 0.12409605
0001e0 78 31 c6 bd 07 5a c8 3e 01 b0 47 3e 90 0e 8f 3d
       -0.09677404 0.39131185 0.19500734 0.069851995
0001f0 ff 81 ad bc ea d7 e5 bd cd 26 01 3e 93 b3 50 be
       -0.021180151 -0.11222823 0.12612458 -0.20381002
000200 16 e0 16 bd a2 30 8f 3e 04 14 25 be ae 2c c8 bd
       -0.0368348 0.2796679 -0.16120917 -0.09774147
000210 c8 f0 c3 be 7f ba 85 bd 32 55 a4 3e 65 82 cb bd
       -0.3826964 -0.06529712 0.3209625 -0.0993698
000220 50 db 7c 3d 9a 8d 74 be eb 81 30 be 7c 5e ac be
       0.06173259 -0.23882142 -0.1723706 -0.33665836
000230 0b 70 92 3d 9a 99 26 3c 32 99 c7 3e f3 24 fc bd
       0.07150277 0.010168457 0.38984066 -0.12311735
000240 94 bf 5d be e9 6f da be bb b3 17 3e 20 81 d7 3d
       -0.21655113 -0.42663506 0.14814655 0.105226755
000250 0f 81 83 be 82 82 a7 3e 91 db e6 3e 4e 33 f1 3d
       -0.256844 0.32716757 0.4508939 0.11777364
000260 06 4d a1 3d 8d 64 80 be 3a d4 98 3e 7a 8d 07 3d
       0.07876019 -0.25076714 0.29849416 0.033093907
000270 5b f7 e3 bd f2 4b b0 3e fa 96 02 3f 38 0b 20 3c
       -0.11131164 0.34432942 0.5101162 0.0097683
000280 a2 45 1b be b5 ee 41 be 8e 63 b7 3b 18 71 85 3c
       -0.15163282 -0.18938716 0.0055965846 0.016289279
000290 c8 c5 a2 be 26 f8 e1 bd c3 1d c2 3d 70 f8 82 bc
       -0.3179152 -0.11033659 0.09478333 -0.015987605
0002a0 f3 85 9d be 54 f0 da bd 47 d3 6b be 46 06 c3 3d
       -0.30766258 -0.1069037 -0.23029815 0.09522681
0002b0 52 fd ed 3d e4 24 85 3e 3d 89 89 3d e9 0e ec be
       0.11620583 0.26004708 0.06715629 -0.46105126
0002c0 5b 40 5f 3f 1c 6d 31 3e 66 fe 09 3d e1 46 57 be
       0.87207574 0.17326778 0.03368988 -0.21023132
0002d0 a7 07 38 be 4b d2 24 bf cd 7f 33 3f 1b 54 8f 3b
       -0.17971669 -0.6438338 0.70116884 0.00437404
0002e0 70 a6 40 be 54 43 2b 3d 5d fd 0b 3d 90 cd 91 be
       -0.18813491 0.041812256 0.034177173 -0.28477144
0002f0 47 dc 76 be 70 c1 a3 3d 00 85 2e 3e c3 2f 53 3e
       -0.24107467 0.0799588 0.17042923 0.20623688
000300 4c 84 66 bd b3 24 82 3e 25 5a 0d 3e 69 52 79 be
       -0.056278512 0.25418624 0.13803919 -0.24347843
000310 6d 48 14 bf a2 eb 13 bd d2 83 07 bd 82 4b 4c bf
       -0.5792301 -0.03611339 -0.033084698 -0.79802716

recurrent_weights f4 [100, 100]
000000 bd 9f a9 bd fc 05 bf bd 39 e0 d8 3d bc eb 17 3d
       -0.08282421 -0.09327313 0.10589642 0.03709005
000010 d3 05 d9 bd be f6 b9 bd 55 7a e2 bc fa 15 80 be
       -0.10596814 -0.090802655 -0.027646223 -0.25016767
000020 d2 f6 07 bd 95 3c 04 be 6e 66 90 3c 56 99 be 3c
       -0.03319437 -0.12913735 0.017626967 0.023266476
000030 37 1e 3c bc 5f f7 dd 3d 5d a6 50 bd d7 b1 89 bc
       -0.011481813 0.10838198 -0.050939906 -0.016808433
000040 d1 9e 11 3e 3d da 98 3d fc e8 ae bc 1f 0d 0d bd
       0.1422074 0.07463501 -0.02135133 -0.03443634
000050 51 38 57 bc 6c fe 1c bd 01 d7 15 bb 4e f6 8e 3d
       -0.0131359855 -0.038328573 -0.0022863748 0.06980573
000060 6a 63 93 3d cd b5 c0 3d 4a b1 45 be 76 48 16 3e
       0.07196696 0.09409676 -0.19305912 0.14676079
000070 4c e0 20 bb 83 12 a8 3d 3a 8d b4 3d ae 94 8e bd
       -0.0024547754 0.08206656 0.08815999 -0.06961952
000080 8c 2f c8 bc f3 9d 00 3d d0 51 29 be d1 06 41 be
       -0.024436735 0.031400632 -0.16535115 -0.18850257
000090 b1 38 a8 3e 67 99 2a 3e fb 87 3d 3e 7a ac 99 3d
       0.32855752 0.16660081 0.18508904 0.075036004
0000a0 fc 25 0b be 07 c1 0c be e8 a2 bf bc 59 2f 16 3e
       -0.13588709 -0.13745509 -0.02339311 0.14666499
0000b0 3a 01 ca bd b9 06 23 3d 9e 56 51 3e f3 f6 30 3e
       -0.09863515 0.039801333 0.20443198 0.17281704
0000c0 92 60 cd bd 70 00 16 bd 39 fd d8 bd ae 5e 47 3c
       -0.10028185 -0.03662151 -0.105951734 0.0121685695
0000d0 17 f2 12 3e 4a 63 06 be fe 24 90 3d 87 bc d1 3c
       0.14350162 -0.13123813 0.07038306 0.025602592
0000e0 55 4e bc bc a4 2a 36 bd fc 9e 80 bd db 2a 52 3d
       -0.02298657 -0.04447426 -0.06280324 0.0513104
0000f0 84 8d eb bd ee 68 a8 3d 58 e0 1f 3e 36 8b 26 3d
       -0.11501601 0.08223139 0.15612924 0.040660106
000100 a6 9c b8 bc 82 7a 65 3d 19 a9 34 3d 81 9f 19 3d
       -0.022535633 0.056025036 0.044106577 0.03750563
000110 42 6e 28 be 11 61 a2 bd c9 fa 2d bc 01 c3 30 be
       -0.1644831 -0.0792867 -0.010618874 -0.17261888
000120 a3 29 4a bd cc 86 0f 3e 2d bd 8e be 0c 11 88 3d
       -0.049356114 0.14016265 -0.27878705 0.066438764
000130 3d e4 0d bd 1a 5a 99 bd 7a 82 43 bc 69 29 3e 3b
       -0.034641493 -0.07487889 -0.0119329635 0.0029016382
000140 a7 83 87 3d 41 60 b4 3e c9 7b 69 3d 4b 8d 11 be
       0.066169076 0.35229686 0.057002816 -0.14214055
000150 e5 1e 5d 3e c2 1f 9a be 0e 3f 90 bd 09 36 8e 3d
       0.21593817 -0.30102354 -0.07043277 0.069439
000160 bc f9 d8 3d ff 93 68 3d c9 7e 88 bd 3a 30 87 3c
       0.10594508 0.056781765 -0.06664807 0.016502488
000170 98 8e 7b 3d 54 23 0c 3d e3 24 d8 3d 4e 35 b5 3d
       0.061415285 0.03421338 0.105539106 0.08848058
000180 37 10 49 be c1 6b cd 3d 5a 38 66 bd a5 c3 76 3d
       -0.19635092 0.10030318 -0.056206085 0.060245175
000190 20 ca 8a bd 7f 9c 44 be ee 33 8d bd 38 7a 82 3d
       -0.067768335 -0.19200324 -0.068946704 0.063709676
0001a0 3e 73 2d 3d 73 e9 7a 3d bf 67 07 3b 16 8e 4c 3e
       0.04234623 0.06125779 0.0020661203 0.19976076
0001b0 0f 95 c7 3d 51 3e de bd 58 67 db bd 2f 9b c9 bc
       0.097452275 -0.1085173 -0.10713071 -0.02461013
0001c0 d9 bd e7 bd 8d 72 a8 3d 48 2e 55 3e 22 64 3e bd
       -0.113155074 0.08224974 0.20818436 -0.046482213
0001d0 4f be 2f be 81 ee e0 3b 40 7b 9b 3d 17 fb fb 3c
       -0.1716244 0.0068643694 0.075918674 0.030759377
0001e0 55 d9 d6 bd 0c 4a f5 bd 51 b9 11 3e 09 d2 d5 bd
       -0.104906715 -0.11977014 0.14230849 -0.10440452
0001f0 4d 54 d3 3d eb 0d 79 bd 0a 42 4e bd 0f 61 23 3e
       0.103188135 -0.06080429 -0.05035595 0.15954994
000200 70 aa 15 3d 18 d9 e4 39 97 6c 30 bd 03 5e af bc
       0.036539495 0.00043649296 -0.04307231 -0.021407133
000210 eb 39 09 bd 05 c3 8e bd fe 83 dd 3d 00 48 60 3d
       -0.0335025 -0.06970791 0.10816191 0.054756165
000220 79 dd 6d bd 11 a3 09 3e 74 83 1f be 17 eb fe bc
       -0.05807254 0.13441111 -0.15577489 -0.031117959
000230 98 23 67 3e 2b 12 01 3d e4 c8 75 bc 95 6a 97 be
       0.22572172 0.031511467 -0.015001509 -0.29573503
000240 24 de 41 bc 48 a5 05 be a3 76 41 3d 24 f4 5c bd
       -0.011832748 -0.13051331 0.04723228 -0.05394377
000250 5e 4d de 3d 44 3f 3e bd d0 0b c8 bd 26 6d c8 3c
       0.108546 -0.046447054 -0.09767878 0.024466109
000260 3e fa db bd e2 63 7f be 2a 9f 95 bc 50 70 b0 bd
       -0.10741089 -0.24940446 -0.018264372 -0.08615172
000270 25 b6 1c 3e 41 71 8c bd 76 0c 76 3d 3e a5 0c 3e
       0.15303858 -0.06857539 0.060070477 0.1373491
000280 b3 e3 94 bc 1e 19 45 bd 3d c7 20 3d 7b 93 04 3c
       -0.018174982 -0.048119657 0.03925251 0.008091803
000290 a8 77 17 be 57 aa a8 bc 53 a7 25 3c 51 5c 8a 3d
       -0.14791739 -0.020589037 0.010110694 0.06755889
0002a0 e0 60 c0 bd c3 e4 b1 bc fc db 14 3d 82 93 f8 ba
       -0.093934774 -0.021715527 0.036342606 -0.0018964859
0002b0 c7 3a 10 3e d0 f6 b4 3c 5c be 3c bd da 1c 31 bd
       0.14084922 0.022090346 -0.04607998 -0.043240406
0002c0 48 74 ed bc 8d 1f 02 be f8 29 f0 3c 74 be 93 bd
       -0.028986111 -0.12707348 0.029316887 -0.072140604
0002d0 9a a2 fa bd 3f d9 20 be e4 4d 3a bd 88 63 12 3e
       -0.12238045 -0.15707873 -0.04548444 0.1429578
0002e0 6a 0e f1 3d 73 33 5f 3d c9 39 e3 bc af 3d c9 3d
       0.117703274 0.054492425 -0.027737515 0.09826218
0002f0 ed 88 0a bc 15 07 a2 bc 80 0f 5a 3d 1a d3 21 3e
       -0.008455497 -0.019778768 0.05323744 0.15803185
000300 5d b7 a5 3d 2c 6f 11 3e 42 6b 86 3d 6a 53 30 3d
       0.080916144 0.14202565 0.065634266 0.0430483
000310 e0 7f 1d 3d 8f e5 f2 3c 10 94 93 3e a1 96 b7 bd
       0.03845203 0.029650478 0.288239 -0.08964277
000320 b1 07 49 bd 3d 22 d3 3c b0 65 ab 3c 8e ac de 3c
       -0.0490796 0.025773162 0.020922512 0.02718189
000330 35 54 34 be ff 91 84 3e b6 07 e2 3c 5d e8 8b 3d
       -0.17610247 0.25892636 0.027591567 0.06831429
000340 4e 77 8e bb 0b c3 7f 3c ce fd c2 bc 70 e2 e1 3d
       -0.0043477183 0.015610467 -0.023802664 0.11029518
000350 ac fc 9f 3d 0d 8e 11 be 6f 2c 0d bc 96 ea 08 be
       0.07811865 -0.14214344 -0.008616551 -0.13370737
000360 07 8c c1 bd 82 2b 8a bb 18 b0 b5 bd a4 cd a9 bc
       -0.09450536 -0.0042166123 -0.08871478 -0.02072794
000370 d0 8a c0 3d e0 86 ca 3d 4a 81 2d 3d e1 79 83 3e
       0.094014764 0.098890066 0.042359628 0.25678924
000380 16 96 6f 3d db 97 54 3d 20 b1 34 bd 5d c2 13 3c
       0.058492742 0.051902633 -0.044114232 0.009018508
000390 a0 f5 42 3c ba 41 2c 3e d3 99 a0 3d ce a7 b5 3d
       0.011899382 0.16821948 0.0784184 0.08869897
0003a0 60 cd 4d bd 86 a3 12 be 31 47 00 3e 73 44 0b be
       -0.05024469 -0.14320192 0.12527157 -0.1360033
0003b0 e0 cf 0a 3e dd 83 1a 3d d2 cb e6 3d 91 03 88 bb
       0.1355586 0.03772341 0.112693444 -0.004150816
0003c0 da 50 c2 bd c3 fe 2f 3a 2a 4d 8d bc b6 68 ff 3d
       -0.094880775 0.00067136827 -0.017248709 0.12471144
0003d0 89 6a 2f bd 58 c4 66 3e 73 c7 d5 bd fa 7d a0 3d
       -0.04282621 0.22535837 -0.104384325 0.07836528
0003e0 ba d7 0e 3e 78 8e 86 bd 10 1d ba 3c 5a 2e c6 bd
       0.1394948 -0.065701425 0.022718936 -0.096768096
0003f0 cc 05 43 3e 0f df 12 3e f0 3e bc bd b7 e1 b5 3c
       0.1904518 0.14342903 -0.09191692 0.022202356

output_weights f4 [2, 100]
000000 d3 af 05 3e a3 a4 5d bd b4 3b df 3c 84 86 c8 bd
       0.13055353 -0.054112088 0.027250148 -0.09791282
000010 e7 10 d6 bd b0 53 26 3e 55 5d 03 be b8 0d 9f be
       -0.104524426 0.16242862 -0.12828572 -0.31065154
000020 7a a9 1d be f1 38 e9 3d c4 78 88 3d a3 42 4e 3e
       -0.15396681 0.11387814 0.06663659 0.20142607
000030 9f 01 f4 3b 38 2f 86 3d 25 c9 c7 3d 87 81 24 3e
       0.0074464823 0.06551975 0.09755162 0.16065036
000040 c0 ad cf bc 3c f9 90 bd fa e7 d7 bc 4c 4f ac bd
       -0.025351405 -0.07078788 -0.026355732 -0.08413562
000050 60 89 fd bd 50 41 46 3e cf 0c f1 3c 1c 39 5e 3c
       -0.12379718 0.19360852 0.029425053 0.013563421
000060 a8 b7 fc 3d f3 18 af 3d 45 f3 c2 bd ff ec 03 be
       0.12339717 0.085496806 -0.09519056 -0.12883376
000070 01 81 90 3d 4d 1c cb bd ff 35 45 bd 8a c3 30 3e
       0.070558555 -0.09917507 -0.048147198 0.17262092
000080 2f 21 81 3d 62 6d 79 bd 96 f8 9b 3d 7f ee 43 bd
       0.063051574 -0.06089533 0.076157734 -0.04783487
000090 d4 7d 32 bd b9 62 79 bd 36 08 45 3c 2b 4e a7 3d
       -0.04357703 -0.060885165 0.012025883 0.08169206
0000a0 cc c5 81 bb d9 e3 de 3c aa ad 04 be 57 ba 56 bd
       -0.003960347 0.027208256 -0.12956873 -0.0524238
0000b0 ef 53 53 be 85 bc 08 3e 6a a8 fe 3d 26 5d a4 bd
       -0.20637487 0.13353164 0.12434466 -0.08025579
0000c0 9d 05 45 be 99 45 f1 3d e3 13 f8 bc 1d d7 a2 3d
       -0.19240423 0.11780853 -0.03028292 0.07951186
0000d0 db c4 b0 bc 91 5f d3 3d 57 cd e2 bc 3f 3e e6 3d
       -0.021578243 0.10320962 -0.027685804 0.11242341
0000e0 ef 8e 5e be 15 d7 8b 3e 0d ec df 3e 00 c9 60 3c
       -0.21734212 0.27312532 0.4373478 0.013719797
0000f0 88 82 b3 bc 51 20 04 be 44 89 5f bc ce 99 80 3e
       -0.021912828 -0.12902953 -0.0136435665 0.25117344
000100 19 c7 24 be 5f 31 a7 bb 9e 51 b7 bd 2a fc a7 bd
       -0.16091575 -0.005102321 -0.08951114 -0.08202393
000110 5a cb 4d 3d 31 d7 d1 3b 74 e6 35 3d 89 1f c9 bd
       0.05024276 0.0064038266 0.04440923 -0.09820468
000120 b7 3d 4e be 46 b9 82 3d 74 b9 9c 3c 4e ec 64 bd
       -0.2014073 0.06382994 0.0191314 -0.05588942
000130 c9 16 49 3d 62 be 3e 3e b0 bf 37 3d 83 9f e7 3d
       0.049093995 0.18627313 0.04486054 0.11309721
000140 5b 36 ae bd cd 3a 24 3e 85 f0 af bd c3 d6 22 3e
       -0.08506461 0.16038056 -0.08590797 0.15902238
000150 7d a7 df 3d f8 4d a3 3c 81 77 11 3e 7c 77 34 3b
       0.10920618 0.01993464 0.14205743 0.0027537039
000160 0a 97 0e 3f d9 0e 18 bb 18 68 4e be e8 fa a0 3e
       0.5569922 -0.002320221 -0.20156896 0.31441426
000170 ad bc 42 be f4 24 ea bd ab 73 63 bd 16 0a b4 bd
       -0.19017287 -0.114328295 -0.05553023 -0.08790986
000180 a6 e1 1c be af de 1f 3e fa f4 50 be 4a c2 3b bd
       -0.15320453 0.15612291 -0.20405951 -0.045839585
000190 1b 0c 1a 3c 39 f4 06 3c ec 8c 3f 3d e9 41 ce 3d
       0.0094023 0.008236938 0.046765253 0.10071165
0001a0 7f 64 b0 bd 48 c3 c0 3d 50 45 45 3e 61 f2 a4 3c
       -0.08612918 0.09412247 0.19264722 0.020135107
0001b0 96 0e af 3d c6 d1 66 bd a8 8e 1f 3e 4c ae 8e bd
       0.08547704 -0.0563524 0.15581763 -0.06966838
0001c0 34 ff 11 3d 88 e1 20 3e 72 56 be bd 16 17 68 3d
       0.03564377 0.15711033 -0.09293832 0.05666264
0001d0 b6 53 bb 3d 06 8a 1b 3d 58 a6 12 3b 5e b8 01 bd
       0.09146826 0.037973426 0.002237698 -0.031669967
0001e0 a4 25 da 3d 3b a0 cf 3c d8 d6 64 be ff 19 42 3e
       0.10651711 0.025344959 -0.22347581 0.18955229
0001f0 d3 16 b8 be 5b a3 ad 3d ef 4c c9 bd 5c e6 78 3c
       -0.35954913 0.08478423 -0.09829127 0.015191641
000200 8c 6d 50 be 53 86 40 be 65 4b 05 3e 75 88 29 3e
       -0.20354289 -0.1880124 0.13017042 0.1655596
000210 9e ad 9f 3b e4 5d a5 bd 8a 97 1d 3e d1 ee a0 bd
       0.0048729917 -0.08074549 0.15389839 -0.078580506
000220 26 60 9e 3c 9a 4e df 3d b9 3f 88 bc 7a 5a b6 bd
       0.019332957 0.10903664 -0.016631948 -0.08903976
000230 86 9b 17 3d 6e bc 99 be c5 45 10 3d 3c e8 13 3b
       0.037013553 -0.30026573 0.035222787 0.0022568842
000240 c5 2c 2f 3d 43 3f 0f be d1 61 9c be cc f1 34 3d
       0.042767305 -0.13988976 -0.30543378 0.044175908
000250 9e 5a 5d 3d 24 e1 93 3d 28 64 a3 3d f2 72 02 be
       0.054041497 0.072206765 0.07978088 -0.1273916
000260 22 cd 83 bd 8e e8 9c 3d a6 b8 3c be 69 ea e2 3d
       -0.0643561 0.07661544 -0.18429813 0.110798664
000270 d4 02 5e bd 5c 25 42 3a d8 eb 01 3e 12 52 22 bd
       -0.054201916 0.00074060797 0.12687624 -0.03962905
000280 9b 00 7f 3e 5d 87 c8 bd ad fe d2 bc a5 2c 48 3c
       0.24902575 -0.097914435 -0.025756205 0.012217675
000290 19 68 9d 3e ac aa f9 3d e3 c2 26 bd 71 a5 de bd
       0.30743483 0.12190756 -0.040713202 -0.10871399
0002a0 82 5c cd bd d2 5a 12 be 30 d6 59 3e eb af 21 bc
       -0.1002741 -0.14292458 0.21273112 -0.009868602
0002b0 0a 93 78 bd ac ad 15 3e d4 3f 4e 3d b1 95 2e bd
       -0.060687102 0.14617032 0.05035384 -0.042623226
0002c0 fd e8 3a be 35 5a c6 3d 2c 4a 31 3d 82 96 37 3e
       -0.1825294 0.096851744 0.043283626 0.17928508
0002d0 4a 32 a7 bc 58 b8 ba 3d c9 61 8b bd a3 86 41 3e
       -0.020409722 0.09117192 -0.068057604 0.18899016
0002e0 e8 f1 3f 3d 90 f5 a9 be 6e 62 9a 3b 3e 3e bc 3d
       0.04686156 -0.33195162 0.0047114408 0.09191559
0002f0 90 7e dd bd 4e ab d5 bd 0f 1d 28 be ab 98 36 bd
       -0.108151555 -0.104330644 -0.16417335 -0.04457919
000300 6c e1 4f 3e e4 0a ea bd 5f f7 f8 bd 35 36 07 3e
       0.20300835 -0.114278585 -0.12156557 0.13204272
000310 35 78 84 3d 25 5f a8 3c 79 1b b4 3c 94 21 97 be
       0.0646824 0.020553181 0.021985756 -0.29517806
